FINAL_MODELS/RNN_PAST5_FUTURE4_H500_L2RELU_V2.pt (torch, 255020 bytes, 8 tensors)

weight_ih_l0 f4 [175, 2]
000000 02 90 b8 bb 60 68 fc c0 41 82 40 3f ee e0 3e be
       -0.0056324014 -7.887741 0.7519875 -0.18640491
000010 53 6c 63 3d 82 ed b0 40 49 2c 94 41 e1 c8 01 be
       0.055523228 5.5289927 18.521624 -0.12674285
000020 5d 59 80 be 46 29 9e be 9a e7 73 bd 62 9d fa b9
       -0.2506818 -0.30890864 -0.059547044 -0.00047800975
000030 86 58 fa bc 06 43 af bd ea 41 a5 3f cb aa 19 bf
       -0.03055979 -0.085577056 1.291074 -0.60026234
000040 38 6b 3f bf 7f e3 71 bd 93 fc a2 3f a4 70 41 3f
       -0.7477298 -0.059054848 1.273333 0.755625
000050 65 ca 74 3d e3 09 fc 3f 72 ff 80 3d 4f 13 d3 3e
       0.05976333 1.9690517 0.06298722 0.4122567
000060 3d e1 27 c1 8b 54 12 3d 8d 8f af be 5d e2 86 be
       -10.49249 0.035725158 -0.34289208 -0.26344576
000070 16 3d a8 ba 58 5e 10 40 c4 2e 09 bf bf a0 3c bf
       -0.0012835588 2.2557583 -0.53586984 -0.7368278
000080 77 37 bd 3e 28 9c 80 bf e5 5f b1 be 05 6a 12 3f
       0.3695638 -1.0047655 -0.34643474 0.5719302
000090 88 13 8d 3e 62 9b 5d be 1c 44 78 3f 6d b2 33 3e
       0.27553964 -0.21641305 0.96978927 0.17548533
0000a0 a7 ab 69 3f 8e b2 9f bb df 42 1d bf 80 6c 19 3e
       0.91277546 -0.0048735803 -0.6143016 0.14982796
0000b0 14 73 89 bc 89 81 04 41 65 4a f0 bd 0f a9 8c be
       -0.016778506 8.281625 -0.1173294 -0.2747273
0000c0 7a 3e d6 c0 c0 88 51 3f b4 ca 92 3e aa 7c d2 3d
       -6.6951265 0.8184929 0.28670275 0.10277684
0000d0 00 c7 9b be 0c c0 77 3e bf 5a 2b 3f 06 55 e7 3d
       -0.30425262 0.24194354 0.6693534 0.11295514
0000e0 60 38 84 3f 1a 37 9b bd 39 c0 82 c0 df b2 79 bf
       1.0329704 -0.07578869 -4.0859647 -0.9753856
0000f0 8c 19 d2 3e 55 91 85 3e 20 5c 3e bf 9b 8d 2a 3d
       0.41035116 0.26087442 -0.7435932 0.04163895
000100 6e 6f 21 3d 1b 9d 42 bf c6 5a 27 3f 3a 42 5e bf
       0.03941291 -0.76020974 0.65372884 -0.86819804
000110 69 4f af c1 4a 9f d9 bf 4c 0d 14 c0 88 64 2c 3f
       -21.913774 -1.7001736 -2.3133116 0.673409
000120 18 40 0c 40 a6 8b 90 3e 34 46 06 c0 7b f3 e1 be
       2.191412 0.28231543 -2.0980349 -0.44131073
000130 62 dc 01 40 af 14 c3 3e 4f 33 fb be 53 40 18 bf
       2.029076 0.38101718 -0.49062583 -0.5947315
000140 b1 55 ad be af db d1 be ca 27 46 40 68 38 0f 40
       -0.3385444 -0.40987918 3.0961785 2.2378178
000150 12 fe f5 c1 1b 96 18 3d a1 25 19 3f f4 23 a1 3d
       -30.749058 0.037252527 0.5982304 0.07868186
000160 d7 a0 f2 be cc 9f c0 bd b4 ca 8e 3e ed d0 0f bf
       -0.47388336 -0.09405479 0.27889025 -0.5617817
000170 b3 20 b6 c0 16 36 93 bf 50 c0 6d bf 38 5d 96 3e
       -5.6914916 -1.1500881 -0.9287157 0.29367995
000180 03 c7 e2 3e 22 bb b3 be 08 1f 5d be ff fc e6 3d
       0.4429246 -0.35103709 -0.21593869 0.11278724
000190 31 57 87 3e ed 68 8c c0 06 99 5b 3e ef 41 1d 3e
       0.2643371 -4.3878083 0.21445093 0.15357183
0001a0 44 33 ec 40 e1 3c 8c bf f4 3f 8e c0 d3 34 93 bd
       7.381258 -1.0956079 -4.445307 -0.0718781
0001b0 aa 1b 0f 3f e2 95 b4 be f6 53 0a c1 fb f9 f8 3d
       0.55901587 -0.35270602 -8.645498 0.12157055
0001c0 8c f6 53 3f ae b6 96 3f 9f 9a fa bf 0b e4 1a bf
       0.82798076 1.17745 -1.9578437 -0.60504216
0001d0 b8 37 00 41 4e 65 6d bf 53 cc da 3f 2b fa 07 40
       8.013603 -0.92732704 1.7093605 2.124644
0001e0 15 42 9b be f9 f2 1c be b8 36 97 be 60 4c 0e 3f
       -0.30323854 -0.15327062 -0.29533935 0.5558529
0001f0 5a 74 c6 be f4 1d 90 3d 7e e0 86 bd 39 23 02 c0
       -0.38760644 0.07036963 -0.06585787 -2.0333998
000200 2c dd 75 bd 27 63 36 bf 65 b1 f3 bc dc d4 28 be
       -0.06002538 -0.71245044 -0.029747674 -0.1648745
000210 53 71 8d bf d2 58 a7 3e b7 93 6c 3f 08 48 14 40
       -1.1050209 0.32684952 0.92412895 2.3168964
000220 6e 5f ea 3d a3 8e a1 3c 41 6e 36 bf f6 45 a0 3f
       0.11443983 0.019721335 -0.71261984 1.252135
000230 e0 59 b7 bd 78 83 31 41 0e ef 05 bf 34 67 90 be
       -0.08952689 11.094597 -0.52317894 -0.28203738
000240 86 33 21 40 05 a6 e4 3f c4 2e 8b 3f 94 b0 46 3f
       2.5187697 1.7863165 1.0873647 0.77613187
000250 cd 4d 1f 3c 4e 15 75 3f 90 c0 16 bf b2 27 84 bc
       0.009723139 0.95735633 -0.5888758 -0.01613221
000260 d4 db dd bc 6e 23 aa be f8 8e 37 3f a1 91 8e 3f
       -0.027082361 -0.33230156 0.7170253 1.1138192
000270 d5 75 a1 bf d8 5c d8 bd 3a e8 8a be 8d e2 8f bf
       -1.2614084 -0.105645835 -0.271303 -1.1241013
000280 46 5a 03 c1 84 8d 99 3d 90 38 23 be cc d7 83 3e
       -8.209539 0.07497695 -0.15939546 0.25750577
000290 90 ee 82 bf a8 e9 2b bf 07 85 07 42 a1 47 b5 3e
       -1.0229053 -0.67153406 33.87991 0.3540621
0002a0 a3 2e 05 3e 0a e8 7f 3e 6b 97 c2 be b5 81 e5 3d
       0.13006072 0.2499086 -0.38006148 0.1120638
0002b0 42 da 90 bf 47 b5 1f 3f 18 f2 33 3f 7b 2a 8a 3f
       -1.1316607 0.6238598 0.7029128 1.0794214
0002c0 92 5c 37 bf 32 64 42 3d d0 ee 93 3d f4 2b a2 3d
       -0.71625626 0.047458835 0.07223284 0.0791854
0002d0 b5 34 00 3f 7c df bd c0 c6 a8 60 3e bc 4a dd c0
       0.50080425 -5.933531 0.21939382 -6.915373
0002e0 1f 96 3b 3d 51 97 31 3f 15 48 34 3e 0e ff a4 bd
       0.045797464 0.69371516 0.17605622 -0.0805646
0002f0 a1 90 37 3f bd cb a9 40 05 23 9d 3e 82 52 e7 be
       0.7170506 5.3061204 0.3069078 -0.45180136
000300 fc 95 16 bf b0 6c 9d 3b 23 7f 1e be 90 2a fc be
       -0.5882261 0.0048042163 -0.15478186 -0.49251223
000310 1e 3a 9a bf 0d 62 33 bf 3c 27 c1 be ce b5 15 3e
       -1.2048986 -0.7007149 -0.37725246 0.14620134
000320 b9 e2 31 3d 17 f8 71 be f1 a2 0b bf 51 ab 6f 3f
       0.04342911 -0.23629795 -0.54545504 0.93620783
000330 be 7f e3 be ea 9e ac 40 cc 84 a3 3f 9c 23 65 3e
       -0.44433397 5.3943987 1.2774901 0.22376865
000340 5b 5e 8b 3e b4 cb 96 3f 3d d2 d4 3d 4d af f4 3d
       0.27220425 1.1780915 0.10391662 0.119474985
000350 35 9b 2e be 4f 11 c7 c0 41 16 87 3f 29 1f 85 bd
       -0.17051394 -6.220863 1.0553666 -0.06500084
000360 61 d7 ad 3f cf f8 90 bf 8c fa 41 3f 82 68 6b bd
       1.3581353 -1.132593 0.7577293 -0.057472713
000370 ba 93 ac 3c 66 cc 01 c1 61 ce d9 be 57 17 3b bd
       0.021066535 -8.112402 -0.42540267 -0.045676555
000380 2b 33 2c bf b6 27 94 3f de 6f 3a be 7f 06 6d 40
       -0.67265576 1.1574619 -0.18206736 3.7035215
000390 60 6e b6 c1 7b 47 fd be da 0f 31 bf fe 62 0b 3d
       -22.803894 -0.49468598 -0.6916481 0.034029953
0003a0 a8 c2 85 bf 36 b7 18 3b 6a e1 4a bf 8b e7 4e 3f
       -1.0450029 0.0023302562 -0.79250205 0.80822057
0003b0 b4 00 c6 c0 70 24 49 3e 37 62 f6 bf 04 6a 5b 3f
       -6.187586 0.19642806 -1.9248723 0.8570864
0003c0 0a 85 b4 3d af dc c9 be 5d f6 bf be 7e 99 17 be
       0.08814438 -0.3942618 -0.37492648 -0.14804646
0003d0 49 b0 30 3f 18 a9 03 c0 23 72 4f be d1 a3 9a c0
       0.6901899 -2.0571957 -0.20258383 -4.832497
0003e0 d7 23 26 3f ef 3a 6e 3d e7 8d 42 c0 2b d0 15 bf
       0.6489844 0.058161672 -3.039911 -0.58520764
0003f0 e0 3a fe 3d a4 87 b9 bd 8c 7c 4b 3f 97 17 cb 3f
       0.12413573 -0.090590745 0.7948692 1.5866574

weight_hh_l0 f4 [175, 175]
000000 96 0e 4e bc d4 d4 d6 3d 90 01 bd be 80 66 b7 bd
       -0.01257672 0.104898125 -0.36915255 -0.08955097
000010 c4 58 c5 3d aa fb 29 bf 8d 5f 2e 3d f0 86 8b bc
       0.09636071 -0.66399634 0.042571593 -0.017032117
000020 5a 32 fe 3d 70 e5 28 bd 1c 55 ac 3e 42 b9 e9 3d
       0.124119475 -0.041234434 0.33658683 0.11412288
000030 cc 39 58 3d 09 2b 1a 3d 3c 78 a4 bd 89 87 2b 3d
       0.052789494 0.037638698 -0.080307454 0.041877303
000040 a4 60 9d be e5 f7 97 3d ce 82 0c 3c 3a 9a b7 bd
       -0.30737793 0.07420329 0.008576108 -0.08964963
000050 18 97 0d be f9 22 c0 bc e6 b7 5f bf ed bf 45 be
       -0.13827169 -0.023454176 -0.8738998 -0.19311495
000060 79 c5 5b 3e 9b 36 bb 3d 05 9b cb be d0 09 3c be
       0.21462049 0.091412745 -0.39766708 -0.18363118
000070 67 00 63 3e a5 6e 92 bd 69 2e 80 3e fd 93 e1 3e
       0.22168122 -0.0715001 0.25035408 0.4405822
000080 d7 9e 3c 3e 35 0a b4 bc 79 81 96 bc c2 35 72 3d
       0.18419968 -0.021977523 -0.018372284 0.0591333
000090 8a cf 90 3e 43 00 a6 bd 9c 72 82 3e 3c ac 47 3c
       0.2828334 -0.08105519 0.25478065 0.01218706
0000a0 16 83 67 bc 99 dc 7d bc 63 b2 4d be f8 e7 87 bd
       -0.014130374 -0.015494489 -0.2008758 -0.066360414
0000b0 63 4b 3c 3d 7e 0a 2b 3f c4 4e a1 bd f0 3a e4 3e
       0.045970332 0.66812885 -0.078763515 0.44576216
0000c0 ea 71 f6 3e 0b 52 1e be 3f ee dd 3d de 39 86 3e
       0.48133785 -0.15460984 0.108364575 0.26216024
0000d0 fe 12 45 3e f1 f3 6b bc da dd f7 be b8 60 aa 3c
       0.19245526 -0.014401422 -0.48411447 0.020798072
0000e0 ce bd e7 3d 55 b0 66 be e1 74 39 bd 92 37 61 3d
       0.11315499 -0.22528203 -0.04527748 0.054984637
0000f0 ad 1f 28 be a9 c5 08 be 7e be 9f 3e aa 75 8a 3d
       -0.16418333 -0.13356651 0.31200022 0.06760724
000100 3f 92 7c 3c 46 de 02 3f 5e f9 89 3d 4b 91 b6 3c
       0.015415727 0.5112041 0.06737016 0.022286078
000110 37 e0 a5 be 3b 21 9a be d5 91 9f bd 21 57 b7 3c
       -0.32397625 -0.30103478 -0.07791487 0.022380413
000120 59 2f c8 bd 56 d3 67 be 04 26 84 3e 5c e6 55 3e
       -0.09774656 -0.22639212 0.25810254 0.20888656
000130 f4 63 e9 bd e1 99 a9 bb f3 28 35 bd aa c1 ee 3d
       -0.11396018 -0.0051758145 -0.044228505 0.11658032
000140 15 98 43 3e 60 42 47 3e f7 c0 90 bc b4 fe 5c 3d
       0.19100983 0.19458914 -0.017670138 0.05395384
000150 1d 03 b7 bd 8f ec 89 be c9 e6 c7 3d 86 c3 9b be
       -0.08936141 -0.26938292 0.09760816 -0.3042261
000160 52 a9 aa 3e d9 f5 89 3e 50 eb 27 3f 9a b1 a6 bd
       0.33332306 0.2694538 0.65593433 -0.081393436
000170 a8 ef e8 3e e4 5a 8f 3e 7f dd 97 bd 2d 3e 8a be
       0.45495343 0.27999032 -0.07415294 -0.2700056
000180 5b 6b fd 3d 2a 67 b7 bd 0d 7d da bd 35 d0 bd be
       0.12373992 -0.08955224 -0.10668383 -0.37072912
000190 b3 1b 96 3e 59 b6 50 be 71 01 77 3d a8 cf d8 3d
       0.29318008 -0.2038206 0.06030411 0.10586482
0001a0 7c a4 a1 3e 7c ec 7d be 4b e7 b9 3d 95 bc 4a bd
       0.31570804 -0.24797243 0.09077319 -0.049496252
0001b0 a6 cd 0f be f0 fd 88 bd 07 60 76 be 62 26 20 be
       -0.14043292 -0.0668906 -0.24060069 -0.15639642
0001c0 06 90 8a be 5a 8f 2a bf 80 bb 7f be bb 24 fb bc
       -0.27063006 -0.6662499 -0.2497387 -0.030657163
0001d0 f1 62 5d 3e eb 19 3a 3d 9f fa 19 3e 54 89 79 be
       0.21619774 0.045434874 0.1503701 -0.24368793
0001e0 d8 8a 8e be e4 41 af bd c2 a3 f8 bd 7b 09 3a 3d
       -0.27840304 -0.085574895 -0.12140609 0.045419198
0001f0 f4 eb 30 3e 43 3d 11 3e a6 91 4a bb 80 39 69 bd
       0.17277509 0.14183526 -0.0030909567 -0.056939602
000200 ed 8f 4e bd cf 77 b9 bd 88 e5 fd bc 1e 1a 6e 3e
       -0.050430227 -0.09056055 -0.030993238 0.2325215
000210 ff 45 75 be 11 e0 20 bd c0 6b 4b bc 49 80 c5 3d
       -0.23952483 -0.039276186 -0.012415826 0.09643609
000220 d5 9a ea be 1d 78 eb 3d 74 6a 54 be d0 2a 17 be
       -0.45821252 0.11497519 -0.20743734 -0.14762425
000230 31 69 e1 3d 22 dc dc bd c6 d8 86 3d a1 0a b9 3d
       0.11006392 -0.107841745 0.06584315 0.090352304
000240 f9 f0 2b bb 9e fa c9 be 63 2a 90 3e 15 52 83 3d
       -0.002623616 -0.39449018 0.28157339 0.0641214
000250 06 21 50 be d2 9f 10 be 24 ef 7d 3d a2 80 0d 3e
       -0.20325097 -0.14123467 0.06199564 0.13818601
000260 6f 3c bf bc e5 43 17 3f 87 62 cc bd 79 4c 10 bd
       -0.023344247 0.59087974 -0.0997973 -0.03522918
000270 05 d9 e0 be bb 70 b1 3b 5e e9 1e bd 20 a0 47 be
       -0.43915573 0.00541505 -0.038796775 -0.19494677
000280 f5 3e 09 3e 63 69 4c be 20 2a c9 3d 3f 5b dc be
       0.13402922 -0.19962077 0.09822488 -0.43038365
000290 90 33 d0 bc dd 8b 12 be 1a 8d 3e 3e d9 cf dd 3e
       -0.025415212 -0.14311166 0.18608513 0.43322638
0002a0 28 a8 29 3d 92 f6 66 3d 70 48 2c 3e c2 26 91 be
       0.041420132 0.05638749 0.16824508 -0.28349882
0002b0 63 1a 7a bc ed ea 9e 3e c7 71 eb 3d f4 ae 9b bd
       -0.01526508 0.3103861 0.11496311 -0.07601729
0002c0 64 1f 98 3d ab 45 e9 3d a4 68 f2 be 41 09 b0 3e
       0.07427862 0.11390241 -0.4734546 0.3438206
0002d0 96 68 6c bf d1 bb 54 3d 82 65 03 be e1 d1 89 bd
       -0.92347085 0.05193693 -0.12831691 -0.06729484
0002e0 6d 29 6a be cd 7c 2a 3f 90 87 64 bc 56 eb e4 3e
       -0.22867365 0.6659668 -0.013948336 0.44710797
0002f0 38 53 fa 3e 11 31 0b bf df 51 bf be ee 9d d1 3d
       0.48891616 -0.54371744 -0.3736715 0.10235201
000300 40 65 06 be 85 67 fb 3e ff 44 95 be 63 f2 87 3e
       -0.13124561 0.49102417 -0.29154202 0.26552114
000310 ac 89 e2 be 95 a1 be 3d 54 70 10 3f 44 b8 9f 3e
       -0.4424566 0.09308163 0.564214 0.3119527
000320 ab 07 5d bd d7 57 10 bf 86 4f 3e 3d d0 6b 79 be
       -0.05396239 -0.5638403 0.04646256 -0.24357533
000330 d0 00 8f be 4c 59 63 be b7 0c 9a be e2 a2 86 3e
       -0.27930307 -0.22202033 -0.30087826 0.26296145
000340 e9 f2 36 3f ad 00 0d 3f 27 a0 87 3e 50 71 66 bf
       0.714644 0.55079156 0.26489374 -0.9001665
000350 c3 70 88 3e b6 ed 7a be c9 5e 12 3f cd f0 6b 3d
       0.2664853 -0.24504742 0.5717588 0.057602692
000360 70 d5 87 3e a1 14 61 3f fd b9 ef 3d 8d 26 33 bf
       0.26530027 0.879221 0.11705396 -0.699807
000370 fd c3 62 3e 3c 41 b1 be eb bb 1b be d5 42 a6 be
       0.22145076 -0.34620082 -0.15208404 -0.32472864
000380 f9 56 23 be cd aa 7d 3c 59 f2 db bd bb e7 0e bf
       -0.15951146 0.015482617 -0.107395835 -0.5582234
000390 cb 7f 6a be a6 ad fd be a0 ee 27 3f 94 32 9e bd
       -0.22900312 -0.49546546 0.6559849 -0.07724491
0003a0 63 8a 86 3e c6 58 33 be b1 89 b9 3d 64 5f 57 bd
       0.26277456 -0.17514333 0.09059466 -0.052581206
0003b0 15 b3 92 bf ac 73 cb 3e 7d 2a cf 3d 89 a5 01 be
       -1.1460901 0.39736688 0.10115526 -0.12660803
0003c0 ac e1 fd 3d c6 6a ef be c6 cd 60 be 31 17 f0 be
       0.12396559 -0.4676115 -0.21953496 -0.46892694
0003d0 60 72 82 bd 6c b4 2f 3f e6 a0 ab be a7 89 9c 3e
       -0.063694715 0.68634677 -0.33521193 0.3057377
0003e0 91 86 96 be 71 63 0a 3e 7f a7 51 be 17 69 0d 3f
       -0.2939954 0.13514496 -0.20474051 0.5523848
0003f0 06 4f 67 be 69 60 1c bf 1e de b7 3d b4 81 2c 3e
       -0.22588739 -0.6108461 0.08977912 0.16846353

bias_ih_l0 f4 [175]
000000 15 82 c7 bc aa 28 0d be d1 e2 19 bd 92 12 c3 bc
       -0.02435402 -0.13785043 -0.037569825 -0.023812566
000010 17 41 0a bd fd 4f 02 bd 22 e7 07 3c 19 6a 9b bc
       -0.03375348 -0.031814564 0.008294852 -0.01897149
000020 c7 65 01 3d 8f f3 02 bd 04 5a 06 3d c8 02 0e bd
       0.031591203 -0.031970557 0.03280069 -0.03467062
000030 3f 34 cf 3b 9b ee 80 bd 49 fa 8f be 0e c5 bf 3b
       0.006323367 -0.062955104 -0.2812064 0.005852348
000040 78 3b 64 bd 28 ef a6 3c e9 f7 7b 3c ac f2 83 be
       -0.055720776 0.02037771 0.015378931 -0.2577108
000050 49 d9 9b 3c 02 72 9e bb c3 73 18 bc 71 be 8b bb
       0.019024508 -0.004835368 -0.0093049435 -0.0042646457
000060 a1 e4 37 3b e8 94 34 bc 57 53 81 3b d0 d2 bb bd
       0.0028059857 -0.01102183 0.0039467025 -0.09171069
000070 36 cc e2 3d e8 fb 18 3e f5 4f b3 3b f8 0c b6 3c
       0.110741064 0.14939845 0.005472178 0.02222298
000080 9b f0 6d bd a8 4f 1c bd c3 64 f5 bc 2c 2e a8 bd
       -0.058090787 -0.038161904 -0.029955273 -0.082119316
000090 27 c5 8f 3d 91 cb 2d 3e 79 4a fa 3b 0d c9 ba 3c
       0.07020026 0.16972186 0.0076382724 0.022800947
0000a0 76 56 73 3c 32 95 c3 be 8a a0 24 3c c5 a9 6c bb
       0.014852157 -0.38199764 0.010048041 -0.0036111933
0000b0 ee e7 41 bc 64 09 21 3d 73 f9 2b 3e 8a 00 d7 3c
       -0.0118350815 0.039315596 0.16794376 0.026245374
0000c0 c7 67 83 bc 4e e3 28 3d 76 dd 71 bd c1 c7 da bc
       -0.016040696 0.0412324 -0.059049092 -0.026706578
0000d0 e0 e3 46 3d c2 ab 05 3e 96 a4 4f 3d e0 e9 65 3c
       0.048557162 0.13053802 0.05069407 0.014032811
0000e0 95 c4 6a bd ba b3 f9 3b 4e b8 35 3c 24 e5 74 3b
       -0.05731638 0.007620302 0.011091305 0.0037368024
0000f0 17 6c 7e 3d 8a 38 7c 3d 37 4b 6a 3d f2 de 03 bb
       0.0621148 0.061577357 0.057200637 -0.00201219
000100 7b 03 87 bd 1e 02 70 bd 0a 66 4a 3e 79 a3 a8 be
       -0.06592461 -0.05859577 0.19765487 -0.3293722
000110 3b bb 24 bd 52 c4 2f bb 8d 2d 4d bb 90 5c 52 3d
       -0.04021762 -0.0026819897 -0.0031307668 0.051357806
000120 70 ed 0b bf c0 38 a7 bd eb 08 05 bd 91 45 5c bd
       -0.54659176 -0.08165121 -0.032479208 -0.05377728
000130 8d 3c 32 3d 57 b9 9a 3b 3c 98 4c 3d b4 3e 9d ba
       0.043514777 0.0047218013 0.04994987 -0.0011996836
000140 50 4a a4 bc 17 bb 3b bd 8e b5 34 3d ca 2b 50 bd
       -0.020054966 -0.04583272 0.044118457 -0.05082301
000150 b5 28 ca 3c b6 f7 a7 3b 20 4e 4a bc 4b dc 9b bd
       0.024677614 0.005125965 -0.012347728 -0.07610377
000160 c1 c3 2d 3d a6 84 91 3b 60 de 96 3c 62 59 15 3c
       0.042423014 0.0044408618 0.018416584 0.009115549
000170 98 23 a0 3c 5b d1 be 3c 72 e3 a5 bc 81 40 88 3c
       0.019548222 0.023293188 -0.020250056 0.01663232
000180 9d 9c 2a 3d 5a f6 53 bd 23 77 fb bc 81 aa a1 3c
       0.041653264 -0.05174861 -0.030696457 0.019734623
000190 b9 6c 60 3b db 66 15 bd 51 4a 8b 3b dc 69 65 bc
       0.0034244491 -0.036475044 0.0042508026 -0.01400229
0001a0 78 12 4e 3c bd fc 09 bd 53 e5 2b 3c a9 ae dc 3c
       0.0125776455 -0.033688296 0.010491687 0.026938753
0001b0 06 7e 97 b9 ed 1f c2 bc c1 fe 25 3b bc f7 47 bd
       -0.0002889486 -0.023696864 0.0025328847 -0.048820242
0001c0 ad 6d ac be 83 b4 4b bb 6c fa 0d 3b de 28 21 bd
       -0.33677426 -0.0031082935 0.0021664156 -0.039345615
0001d0 3e f5 ac bd ef 47 4f 3d e6 5a e5 ba 43 6a 0b 3e
       -0.08445214 0.05060571 -0.0017498403 0.13614754
0001e0 12 04 a3 3c 02 82 d5 ba 38 17 e1 bb 98 12 d4 3c
       0.019899402 -0.0016289356 -0.006869223 0.025887772
0001f0 aa 44 a7 3c 00 af 61 bc cb 10 d1 bc 77 de 28 bc
       0.020418484 -0.013774633 -0.025520703 -0.010306946
000200 cd 4e 06 bd ca f7 a4 3e 6d dd 39 3d c6 5c 03 bd
       -0.032789994 0.32220298 0.045377184 -0.032070898
000210 98 3e 93 bc 19 e6 8b bc 1f ba ac be 5a a4 3b 3d
       -0.017974183 -0.017077493 -0.3373575 0.045811035
000220 1c 8d e3 3b ac 70 41 bd 33 37 c5 bc f6 2b 07 bc
       0.006944312 -0.047226593 -0.024074173 -0.008250227
000230 59 ec 47 3c 8f 08 ba 3c d9 54 2c 3d af 82 06 3c
       0.012202346 0.02270916 0.042073105 0.008209868
000240 fe 34 e2 39 d1 0e 67 bc 5c d3 14 bb 39 c4 4a 3c
       0.0004314556 -0.014102654 -0.0022708988 0.012375885
000250 3a 4b 67 3c 75 48 25 bd 51 ae 8e bc 30 ad c7 3b
       0.0141170565 -0.040352304 -0.017417105 0.0060936436
000260 1e 80 8e 3c f5 2c 2e 3c d4 fd 4c bd 45 77 b6 bc
       0.017395075 0.010630836 -0.050046757 -0.022273669
000270 56 59 9c bb 75 fa 5f 3d 94 16 87 3c 60 38 84 bd
       -0.004771392 0.054682214 0.016490258 -0.06456065
000280 f2 c7 62 be d4 e7 9d 3c a4 51 b7 be 38 76 78 bd
       -0.22146586 0.019275583 -0.35804474 -0.060659617
000290 8f 63 1c bd e8 bf 09 3d 89 a1 d2 be 0c bd 81 3c
       -0.038180884 0.03363028 -0.41138867 0.015837215
0002a0 9b 10 27 bd a9 74 4f bd ce d7 de 39 7b 18 18 bd
       -0.04078732 -0.050648365 0.00042503927 -0.03713272
0002b0 94 c4 39 bd fd 50 bb 3c 8a 95 5f 3d
       -0.045353487 0.022865767 0.05458597

bias_hh_l0 f4 [175]
000000 cb b9 8d bb db bd bb bd 5e a4 19 3d 6a a7 46 3c
       -0.0043251268 -0.091670714 0.03751027 0.012124876
000010 d1 bc 64 bd 06 56 ed 3c d2 25 49 bc 2c 4a 01 bc
       -0.05584413 0.028971683 -0.0122770835 -0.007891219
000020 60 22 43 bd a8 53 01 3d c4 ca c5 bc 26 b3 3c 3d
       -0.047640204 0.03157392 -0.024144538 0.046069287
000030 a5 35 86 3c 0a 54 51 3d e5 cc 90 be de 5d 81 3b
       0.016383002 0.051105537 -0.28281322 0.0039479574
000040 b2 fb 8c 3d 94 c4 48 bc e1 ff e5 bc c1 6a 8b be
       0.068839446 -0.012253899 -0.028076114 -0.27229884
000050 c7 eb 56 bd 16 28 24 bd 32 14 ce 3d 1b 2b ad bb
       -0.05247095 -0.04007729 0.10062446 -0.0052846796
000060 8c ed 1a bd 12 df d3 3b 34 af 14 bb f5 11 48 3c
       -0.0378242 0.006465801 -0.0022687437 0.012211313
000070 b5 5b a7 3b 79 b0 56 3d 8c f2 a3 3b 3a 05 18 bc
       0.005107368 0.05241439 0.005003279 -0.00927859
000080 42 f1 3b 3d c3 95 3b 3d 38 f8 bf 3c 25 bf ea bd
       0.04588438 0.04579712 0.02343379 -0.11462239
000090 ac 61 2e bd 15 8c 07 3e 5d 01 26 bc 99 2e c9 3c
       -0.042573616 0.13237031 -0.010132161 0.024558352
0000a0 bc b7 95 bc 32 2d f9 be 07 92 66 bd c9 41 5a bc
       -0.018276088 -0.48667294 -0.056291606 -0.0133213485
0000b0 11 87 b3 3c 5f c7 62 bc bb 94 86 3e 3a fc f5 bc
       0.02191499 -0.013841479 0.26285347 -0.030027498
0000c0 14 0e 4f 3c 3e 30 2b bd 1b 81 0d 3d 50 5c 37 3c
       0.012637634 -0.041794054 0.034546953 0.011191443
0000d0 ed 28 b3 bc ff 3d 00 3e f7 c6 a1 bd 0a 77 69 3c
       -0.0218701 0.1252365 -0.07899278 0.0142495725
0000e0 c8 b0 6f 3d ee ba 06 3d d2 88 3a bc 56 5d cd bb
       0.0585182 0.032893114 -0.01138516 -0.00626723
0000f0 0d 3f 25 bd be 19 6b bd f0 b9 a6 bc 6e 63 ff 3a
       -0.040343333 -0.057397597 -0.020352334 0.0019484588
000100 4c ef 7a 3d 52 86 5a 3d 09 dc 34 3e 60 b8 e5 be
       0.061263368 0.053350754 0.17662062 -0.4486723
000110 1a 33 cc 3b 5d e9 49 bd d8 52 b6 3c 5e 16 66 bd
       0.0062316777 -0.04929482 0.0222563 -0.056173675
000120 2b 9d 07 bf d5 79 0b be 02 b7 35 3d ec 73 ca 3b
       -0.52974194 -0.13620694 0.044363983 0.0061783697
000130 d4 2e 5d bd d0 a4 c2 bc 2e 2a 31 bc de d9 75 3b
       -0.053999737 -0.02376023 -0.010813279 0.0037513892
000140 8d 45 10 3d 51 fa 2e 3d 69 fa 09 bd 35 90 ca 3c
       0.03522258 0.04271919 -0.033686075 0.024726966
000150 8c bf f5 bc e2 9d 04 bb 3d b3 08 bd 84 17 0b 3d
       -0.029998563 -0.0020235707 -0.03337406 0.033957973
000160 2e 2a 3a bd da df 11 bc 4c 84 b0 bc b4 73 8d bd
       -0.045450382 -0.008903468 -0.021547459 -0.06906834
000170 0f 3f 5b 3d 5e ad 61 3c e5 e9 fc 3c 5d c5 a7 bc
       0.053526934 0.013774244 0.030873248 -0.020479852
000180 5e 6d 36 bd fa ce 58 3d c4 95 61 3d 69 2a f2 bc
       -0.044537894 0.052931763 0.05507447 -0.029561238
000190 8b 39 df 3b 36 94 12 3d f1 72 73 3b 73 08 cf 3c
       0.0068122796 0.035785876 0.0037147368 0.025272584
0001a0 0a 0b e2 bc e4 ef 01 3d af 24 ec bb 6e 2d 92 bc
       -0.027593154 0.03172292 -0.0072065215 -0.017843928
0001b0 1d 96 bf bc f8 95 c3 3c 86 39 14 3b 5c d1 81 39
       -0.02338701 0.023875222 0.0022617294 0.00024760782
0001c0 26 d6 d4 be 8d 71 20 ba de 86 5f 3c 56 1d 42 3d
       -0.41569632 -0.0006120436 0.013642995 0.04739126
0001d0 f8 1f 7f bd 8c 29 5b 3d 83 d1 93 3c cd 99 77 3d
       -0.062286347 0.05350642 0.018044239 0.06044941
0001e0 7c 77 da bc dd c8 12 bd 75 cc c5 bc 48 54 30 bd
       -0.026668303 -0.03583609 -0.024145344 -0.043049127
0001f0 62 00 84 bc ff 63 02 3d 06 08 06 3d 99 69 49 bc
       -0.016113464 0.031833645 0.032722495 -0.012293243
000200 bb e6 58 3d bf 9f cb 3e 86 5e c8 bb 38 6f c8 3c
       0.052954417 0.39770314 -0.0061147837 0.024467096
000210 84 ec 8c 3c 60 54 8f 3c 9b 63 bb be e5 b9 24 bd
       0.017202623 0.017496288 -0.3659943 -0.040216345
000220 ec 1b 76 bb 48 32 3a 3d 2a 38 78 3c 8b 27 0a 3c
       -0.0037553264 0.04545811 0.015150109 0.008432279
000230 85 8d 18 bc 83 80 d5 bc e5 00 04 bd 73 31 02 3d
       -0.009311085 -0.026062256 -0.032227416 0.03178544
000240 75 b7 03 bd 9c 3a d3 ba 65 e2 69 bb 22 c7 16 3a
       -0.03215738 -0.0016115489 -0.003568792 0.0005751719
000250 0d 41 23 3b c9 a0 2e 3d 44 d1 97 3c 09 f1 74 bc
       0.00249106 0.042633805 0.018532403 -0.014950045
000260 74 0f bf bc d0 c5 d4 bc 7a ab f7 3c 87 31 94 3c
       -0.023322798 -0.02597323 0.030233134 0.018090023
000270 e6 44 d1 3a b3 4f 56 bd 6b 8f 27 bc 26 4e 26 3c
       0.0015965968 -0.0523221 -0.010227065 0.010150468
000280 6e c4 79 be 9c 62 10 bd 30 1d b5 be ae 39 34 bd
       -0.24391338 -0.03525029 -0.3537383 -0.04400032
000290 58 d5 3d 3d 73 7a be bd 40 cf d6 be 2a 3b 1f 3c
       0.04634604 -0.09300699 -0.41954994 0.009718696
0002a0 dd 76 38 3d 5f c8 52 3d a8 e8 07 3c 62 be 81 3c
       0.04503523 0.05146062 0.008295216 0.015837852
0002b0 63 12 9a 3d df 2a c0 bc 97 21 60 bd
       0.07523038 -0.023457943 -0.054719534

weight f4 [175, 175]
000000 0a 43 b1 3d 6e a1 41 be 2a 4e 54 be 1f 4b ea 3e
       0.08655365 -0.18909237 -0.20732942 0.45760438
000010 7f 2b 39 be 26 b7 13 3e 36 d2 53 3d 77 ba c8 3d
       -0.18082999 0.14425334 0.051714145 0.0980119
000020 1d 0e ac 3d ed f6 ff 3d 1a 99 f8 3d 58 51 8e bd
       0.084011294 0.12498269 0.12138577 -0.06949109
000030 a4 14 e4 3d 23 4b 2a be 1c 16 0d 3d 07 7b 36 bd
       0.111367494 -0.16630225 0.034444913 -0.04455092
000040 17 c0 fa 3d 1e cb 46 3e c9 0a 2f 3d e7 60 8b 3e
       0.122436695 0.1941342 0.042734895 0.27222368
000050 fa d4 e2 3c e9 f5 18 3e f3 cd 50 be 22 85 83 bd
       0.027689446 0.14937557 -0.20391063 -0.064218774
000060 76 47 e6 bd 2e d1 08 bb 1e 43 a3 3e 15 bb d9 3c
       -0.11244099 -0.0020876634 0.31887144 0.026578465
000070 38 98 00 bd 70 dd 8d 3e 8c 0c 7a bc 62 92 3c be
       -0.031395167 0.27708006 -0.0152617805 -0.18415216
000080 7b 9c 8f bd 12 76 0d 3e 61 b0 8d bd 46 04 b6 bd
       -0.07012268 0.13814571 -0.06918407 -0.08887534
000090 fd a4 ea 3d 98 55 86 3e 23 42 d9 3d 7c e7 07 3d
       0.1145725 0.26237178 0.10608318 0.033179745
0000a0 96 c2 2d be 0a e3 08 bf a7 7b f9 bd 46 84 09 3d
       -0.1696876 -0.53471434 -0.12181788 0.03357341
0000b0 c6 1d 9f bc f1 fd 8a be ac 0b ba 3e 80 7e 78 3d
       -0.019423377 -0.27146867 0.3633703 0.060667515
0000c0 dd 90 25 bd 33 b3 5f bd 8b 8a d9 39 d5 59 97 be
       -0.040421356 -0.054614257 0.00041492688 -0.29560724
0000d0 b1 bb d0 3e bd 8e 88 3e 8c c6 36 3e 77 93 36 3d
       0.40768197 0.266714 0.17849177 0.044574227
0000e0 8e 22 b4 3d 56 74 53 bd 55 0a a1 3d 2d 95 f2 bd
       0.08795653 -0.05162462 0.07863299 -0.11844859
0000f0 a5 e7 cd 3d 18 85 95 3d 1d 2f a4 bd 8d e0 56 be
       0.10053948 0.07300776 -0.08016799 -0.20984097
000100 17 53 b5 bd ba fe 90 be 49 d3 7c bd a8 7a 28 3f
       -0.08853739 -0.2831934 -0.061724935 0.6581216
000110 4b 2a b5 3e 06 2e a2 3e 78 4e 6f be 0d 4a 24 3d
       0.3538383 0.31675738 -0.23369777 0.040109683
000120 4b 4c 98 be c7 05 6c 3e 98 29 fa 3d cc a9 ce 3d
       -0.29745707 0.23049079 0.12214965 0.1009098
000130 e3 bd 19 be 41 62 31 bc cb 1d 4c be 3a 9d 93 bd
       -0.15013842 -0.010826648 -0.1993324 -0.07207723
000140 0c 06 11 3e 09 8d 59 3d 1c 77 37 3d 92 0d 73 3e
       0.14162463 0.053113017 0.044791326 0.23735645
000150 ad 75 fd bd 73 b7 d6 3c 41 5c 9a 3d d4 7b 21 3e
       -0.123759605 0.026210522 0.07537127 0.15769893
000160 ba 72 ab bd d2 93 5c be b4 5c c4 3d 20 8d 22 bc
       -0.08371492 -0.21540764 0.09587994 -0.009921342
000170 f7 e6 88 be f6 07 0c 3d 5d ce 1a be 25 46 42 3e
       -0.26738712 0.03418728 -0.15117784 0.1897207
000180 f2 6b 47 bd 6f ee 32 3e a4 47 c0 3d a6 d4 74 3e
       -0.04868693 0.17473768 0.09388664 0.23909244
000190 f0 3b bb 3c 6d 17 16 3e 34 b1 f9 bd 22 fa 23 bb
       0.022855729 0.14657374 -0.12192002 -0.0025020917
0001a0 9a 57 8d bd c3 7b 86 3c 32 09 4b 3e 01 aa 58 3d
       -0.06901474 0.016416436 0.19827726 0.052896503
0001b0 e1 30 8e 3d 7d 79 cb bd 9f 6f 28 bd 56 1e ca 3d
       0.06942917 -0.099352814 -0.041122075 0.09869067
0001c0 7c 02 52 3e c0 2d 8a 3c 1d 92 55 be 04 5e 8d bd
       0.2050876 0.016867518 -0.20856519 -0.06902698
0001d0 5a 44 b7 3c d5 7e 79 be db 59 f5 3d a2 ce bc 3b
       0.02237146 -0.24364789 0.11980029 0.0057619372
0001e0 06 b1 13 be da 31 96 3e a5 00 3e be 59 4b 39 bd
       -0.14422998 0.2933491 -0.18554933 -0.045237873
0001f0 c3 3d 12 bc fd c8 b4 3d 2f 70 09 be 0c ea 22 3e
       -0.008925858 0.08827398 -0.13421701 0.15909594
000200 23 e3 42 bd 25 25 77 3e b2 96 c7 3d c5 1d 8a be
       -0.047579896 0.24135263 0.0974554 -0.26975837
000210 cc 2a 5b be 40 6a 1a 3e 5d 5a d2 3e 1c c9 18 be
       -0.21403044 0.15079594 0.41084567 -0.14920467
000220 ea 63 6a be 08 0b 63 3e 07 80 0c 3d 80 3a 2f 3e
       -0.22889677 0.22172177 0.034301784 0.1711216
000230 35 83 b9 bd f5 62 e6 3d 41 38 e7 3d 0b c4 03 3e
       -0.09058229 0.11249343 0.112900265 0.12867753
000240 82 70 5c 3e 78 6d bc 3d 73 64 82 bd ad f0 7e 3e
       0.21527293 0.09200567 -0.063668154 0.24896498
000250 8a 2f 14 3d d6 64 4b 3e c6 43 9f 3d 6c ba c9 3d
       0.03617815 0.19862685 0.07776599 0.0985001
000260 8e 01 ac 3e a4 ea 32 3c 47 3e 59 bd ce ea b5 bd
       0.33594936 0.0109202005 -0.053037908 -0.08882676
000270 2e d1 44 bd 55 6f 78 3d ad d2 e2 3d 6d f9 a5 3e
       -0.04805105 0.06065305 0.110753395 0.3241686
000280 6e 9c 59 3d 02 57 07 be ce 75 9f be 9b af ab 3e
       0.0531277 -0.13216785 -0.31144565 0.33532414
000290 d4 4c 53 be dc 90 a4 3d dd 81 23 be 47 fd ea bd
       -0.20634776 0.08035442 -0.15967508 -0.1147409
0002a0 89 43 90 3e 92 80 25 bd 7f 07 e6 3d 6a 75 aa 3d
       0.28176525 -0.040405817 0.112318985 0.08323176
0002b0 b4 ea 50 3d 1b 8f 09 be 84 4b 8f be 6e b0 0b bf
       0.05100508 -0.13433497 -0.279873 -0.54566085
0002c0 62 23 3f be 53 65 b9 3e ad 5e 17 3e 03 01 b5 be
       -0.18665841 0.36210117 0.1478221 -0.35352334
0002d0 c7 fc 5a 3e 48 ba ad 3d ee 2e e9 be 37 37 46 be
       0.2138549 0.08482796 -0.45543617 -0.19357
0002e0 c9 7a d1 3d 84 f8 04 be c2 a0 b1 bd ee dd 55 bd
       0.102284975 -0.12985426 -0.0867324 -0.0522136
0002f0 94 55 25 3f 05 47 85 3d c2 a2 81 bd 65 48 84 3e
       0.64583707 0.065076865 -0.06329872 0.25836483
000300 a1 bf 5f 3e a6 a3 9f bd 13 e2 80 3e c8 e4 93 3d
       0.21850444 -0.07794885 0.2517248 0.07221371
000310 7b 3c b2 3d d6 86 b0 3c 69 05 c8 be d3 f4 c5 bd
       0.08702942 0.02154867 -0.39066628 -0.09665837
000320 58 14 3e 3e 67 08 e7 3c 80 1d 80 be a1 60 e0 be
       0.18562448 0.028202249 -0.25022507 -0.43823722
000330 42 92 4d 3d ff b9 04 3f 70 5e a9 3c a9 55 f3 bc
       0.05018831 0.5184631 0.020674914 -0.029703932
000340 2a 91 b7 3e 65 d1 3a ba ed 25 ea 3e 39 a5 69 bc
       0.3585294 -0.0007126539 0.4573206 -0.014260584
000350 1c 2a cd 3d 54 e1 12 be a7 58 a6 3d 62 c5 e1 bd
       0.10017797 -0.14343768 0.08122378 -0.11023976
000360 6e a5 97 3d d8 5f ca bd 06 49 95 be f3 55 7b be
       0.074046 -0.09881562 -0.29157275 -0.24544506
000370 76 87 28 3e 83 02 1f 3e 19 b0 9b bd 32 c9 a0 bd
       0.16457924 0.15528302 -0.07601947 -0.07850875
000380 ce a2 24 bd 9a 04 da 3e d6 6a e7 be 5f 3e 3b 3d
       -0.040194325 0.42581636 -0.45198697 0.04571378
000390 58 47 d1 3d 8b 16 a0 3e da ba cb bd cb 23 9a bc
       0.10218686 0.312672 -0.099477485 -0.018815896
0003a0 b4 0b 09 bc 88 8d a3 3d 7b ab 35 bf a8 ec d2 3c
       -0.008364607 0.07985979 -0.70964783 0.025747612
0003b0 e0 c9 27 3e 6d 06 11 3e 61 45 8a be 30 74 d1 3e
       0.16385603 0.14162607 -0.27006057 0.40908957
0003c0 82 f6 e9 be 09 75 92 3e 6c a9 54 3e 2c 3e 9d 3e
       -0.45695883 0.28604916 0.20767754 0.30711496
0003d0 68 c2 3e 3e 98 c5 b6 be cb a6 24 3e ae 14 96 bc
       0.18628848 -0.35697627 0.16079251 -0.018320408
0003e0 09 2a a1 bd 5a 86 7c be a1 23 9f be e1 23 39 3d
       -0.07869346 -0.24660626 -0.3108187 0.045200232
0003f0 5b 01 eb be a3 d0 5f be 28 a9 87 bb 70 60 88 bd
       -0.45899472 -0.21856932 -0.004140038 -0.06659019

bias f4 [175]
000000 7c 78 e1 be 5c 3a 44 bf 65 33 a2 be f8 bd 9d bf
       -0.44037235 -0.7665155 -0.31679836 -1.2323599
000010 e3 c9 5e bf 76 e6 0f bf a9 46 94 bf 47 13 67 bf
       -0.87026805 -0.5621103 -1.1584064 -0.9026379
000020 c4 b8 98 be 78 a0 02 be 5b f9 1c bf 62 26 2c bc
       -0.29828465 -0.12756526 -0.61317986 -0.010507198
000030 2b 86 1b bf 35 29 f6 be b8 5f bf be 29 00 49 bf
       -0.607516 -0.48078313 -0.37377715 -0.7851587
000040 9d ff aa be 12 8f 83 bf 04 af ae be 9a 56 5f bf
       -0.33398142 -1.0278037 -0.341179 -0.8724152
000050 7a b1 f8 be 24 18 29 be 84 ad 0e bf 24 4a cc be
       -0.48572904 -0.16513115 -0.55733514 -0.39900315
000060 0f 38 81 be 47 dd b6 be 0c a1 49 bf ae 52 3b bc
       -0.25238082 -0.35715696 -0.78761363 -0.011433287
000070 6f af 24 bf b7 69 09 bf 36 56 3c bf 6a 6e 98 be
       -0.6433019 -0.53676933 -0.7356905 -0.2977174
000080 82 11 25 bf d1 61 a9 be d9 87 ff be 6a 86 01 bf
       -0.6447984 -0.3308244 -0.4990833 -0.50595725
000090 22 05 26 bf 09 80 75 bf 34 8b 82 be e3 4e 04 bf
       -0.6485158 -0.9589849 -0.2549683 -0.5168287
0000a0 1c b9 ad be 72 43 ac be a3 12 7c bf 28 27 53 bf
       -0.3393029 -0.33645207 -0.9846594 -0.8248162
0000b0 88 ab ef be 6f 9e 2c bf d1 1d 1c bf 3b e5 e3 be
       -0.46810555 -0.6742925 -0.60982996 -0.44510826
0000c0 95 a5 80 be 2c 15 21 bf 0f 31 12 bf a0 a0 65 be
       -0.2512633 -0.6292293 -0.5710611 -0.22424555
0000d0 25 9c 39 bf ad 10 5b bf ff 0b 25 bf a8 a2 02 bf
       -0.7250388 -0.8557232 -0.6447143 -0.51029444
0000e0 c4 3f 23 bf 8d 1c 77 bf e9 50 51 bf ba cf 55 bf
       -0.63769174 -0.9652794 -0.81764084 -0.8352009
0000f0 e0 dc 15 bf 79 15 dd be d3 41 45 bf 9e 66 0e bf
       -0.58540154 -0.43180445 -0.77053565 -0.5562533
000100 57 3d 4e be f4 f3 a1 be 61 a9 d4 be 4c f3 83 bf
       -0.20140587 -0.31631434 -0.41535476 -1.0308623
000110 8e f7 55 bf da 38 0b bf 94 7b f5 be b3 bf 0f bf
       -0.83580863 -0.54383624 -0.47945845 -0.56151885
000120 25 85 58 bf 64 c8 62 bf 47 ca 16 bf 36 c2 3b bf
       -0.8457816 -0.8858702 -0.589024 -0.7334322
000130 2f ff 2e bf db 8a c1 be 7d 7d af bf 6b b8 38 be
       -0.6835813 -0.3780125 -1.3710171 -0.180391
000140 51 87 22 be bb 5c 9d be ea 1d f2 be 01 f7 62 be
       -0.15871932 -0.3073481 -0.47288448 -0.22164537
000150 ab 77 af be 66 13 09 bf cb 0a 5b bc 01 46 19 bf
       -0.34270987 -0.53545225 -0.013369272 -0.5987244
000160 d9 f3 2b bf ae c7 22 bf 4f 1d c7 be 75 38 ea be
       -0.67168957 -0.6358594 -0.38889548 -0.45746198
000170 c4 c9 08 bf ff 88 73 bf 6d 75 b3 be 58 ac 20 bf
       -0.5343287 -0.95130914 -0.35050526 -0.62762976
000180 0b dc a3 be f1 81 60 bf e8 2b ad be 55 23 33 bf
       -0.32003817 -0.87698275 -0.3382256 -0.6997579
000190 c2 5a c9 bf e5 0b cf be 43 5f a3 be 8c f8 a7 be
       -1.5730822 -0.40438762 -0.31908616 -0.32806814
0001a0 4c ab b5 bf e5 97 c3 be d5 22 d3 be 9e a4 ae be
       -1.4192901 -0.38201824 -0.41237512 -0.34109968
0001b0 2d e3 a9 be 2e f8 48 bf a2 67 c2 be c0 37 56 bf
       -0.33181134 -0.7850369 -0.3796969 -0.8367882
0001c0 d5 b0 17 bf 65 5a 2f bf f5 96 33 bf 67 78 0c bf
       -0.592542 -0.68497306 -0.7015222 -0.5487122
0001d0 6b ac 28 bf 1d a8 47 bf ad da 8d bd 86 41 6a be
       -0.6588809 -0.77990896 -0.06926475 -0.22876558
0001e0 f4 f0 2d bf 5a f7 56 bf 45 c3 0a bf 32 99 72 bf
       -0.6794579 -0.8397118 -0.5420421 -0.9476501
0001f0 28 6b 0e bf df c1 1f bf e6 69 de be 23 6f 07 bf
       -0.5563226 -0.624052 -0.4344017 -0.52903956
000200 e7 74 30 bf ac db de be 5b 5d 06 bf 31 1a 2a be
       -0.6892838 -0.4352697 -0.524862 -0.16611554
000210 04 8b 13 bf 1c 57 4e bf 5f af 4c bf 20 6d f3 be
       -0.57633996 -0.8060167 -0.79955095 -0.47544193
000220 3d 47 32 bf 2b 71 57 bf e3 fe 0e bd 13 93 34 bf
       -0.6963995 -0.84157056 -0.034911048 -0.7053692
000230 77 9a f9 be cb e5 02 bf 38 31 ed be ed 5b 36 bf
       -0.4875066 -0.51131886 -0.46326613 -0.7123402
000240 42 1a 09 bf 12 3b a6 be 75 67 00 bf da 83 aa bf
       -0.5355569 -0.32466942 -0.5015786 -1.3321488
000250 8b 54 e6 be 6d 06 0a bf e6 8e 82 bf 51 a4 82 bf
       -0.44986376 -0.53916055 -1.0199859 -1.0206395
000260 7d 30 8d be bb bc 31 bf ad 2f f4 bd 49 18 f9 be
       -0.27576056 -0.69428605 -0.11923156 -0.4865134
000270 f2 59 2b bf 49 3c 05 bf e4 5c 10 bf 43 78 0f bf
       -0.6693412 -0.5204511 -0.5639174 -0.5604288
000280 8a a5 27 be 10 19 fe be dc 57 08 bf 1a ab a6 be
       -0.16371742 -0.49628496 -0.5325906 -0.32552415
000290 e0 45 cf be 8d c8 3a bf b6 43 0e bf 78 a3 55 bf
       -0.40482998 -0.72962266 -0.5557207 -0.8345256
0002a0 b2 e0 45 be 13 2a 4c bf 39 22 b3 be ca 86 1d bf
       -0.19323996 -0.797517 -0.34987047 -0.61533797
0002b0 58 87 f3 be 4b 5c b4 be 18 56 58 bf
       -0.47564197 -0.35226664 -0.8450637

weight f4 [2, 175]
000000 dc ee 9b 3d 57 dc 5b bd 2c fb a4 3c 68 6d 08 bf
       0.07613918 -0.05367693 0.0201393 -0.5329194
000010 4b 99 26 bc f9 05 4f 3c 96 fa be be 5f de ca bd
       -0.010168384 0.012635701 -0.37300557 -0.09905695
000020 de aa be 3f c2 3b f7 3e e5 7a 72 b9 d8 ef c5 3e
       1.4895895 0.4828778 -0.000231247 0.3865955
000030 0d e1 1a bb 9d 6e 7e 3d f8 d8 54 bf f4 6e 39 3d
       -0.0023632676 0.062117208 -0.8314357 0.04527183
000040 1e 15 98 3e 8f 18 5c 3d d3 85 6e 3d f2 ce 6f 3c
       0.2970361 0.05373436 0.058233093 0.014636742
000050 01 de 24 3e 52 e6 04 bf 17 c4 26 be ae f4 11 ba
       0.16100313 -0.5191394 -0.1628574 -0.0005567771
000060 54 13 e8 bc bf 82 af bd ab 84 4b 3c e9 df 0b 3f
       -0.028329529 -0.0856986 0.012421767 0.54638535
000070 f4 a1 18 bd 15 d8 43 bc a3 0d 59 3e 3f 19 bb bc
       -0.037263826 -0.011953373 0.21196608 -0.022839187
000080 e4 65 aa ba 29 96 ac 39 17 6d 77 bd f1 89 25 3c
       -0.0013000336 0.00032918275 -0.06040677 0.010103689
000090 01 ea 30 3d 1f 50 3d 3d 11 f9 66 3f 19 70 33 3c
       0.043191914 0.046218988 0.90223795 0.010952019
0000a0 14 25 9a bc af 89 0b bc ac d0 49 3d fc 47 e1 3e
       -0.018816508 -0.008516713 0.04927127 0.44000232
0000b0 49 5b b8 3c a8 4d a4 3f ee 60 10 3e 1c f8 0c bf
       0.022504466 1.2836199 0.14099476 -0.55066085
0000c0 22 c0 26 3e d1 51 89 3c 04 b7 cd be 6a 2b 4e 3f
       0.1628423 0.016762646 -0.40178692 0.80534995
0000d0 4b fa 70 3d b9 e5 0c bc 4c 70 4e bc 30 b6 7e bb
       0.058832448 -0.008599692 -0.012600016 -0.0038865916
0000e0 ec 38 8d bd 09 87 d3 3c 43 e4 c1 bd 8a 37 cc 3d
       -0.068956226 0.025821226 -0.094673656 0.09971531
0000f0 c3 f3 ae 3c 39 ec 02 3d 66 17 02 bd 1a 3e b2 bc
       0.021356469 0.03196356 -0.031760596 -0.021758128
000100 02 c3 79 bd 65 15 8f 3d a5 1b 18 ba 48 59 a8 3c
       -0.06097699 0.069865026 -0.0005802459 0.020550385
000110 2f af 4a 3e da aa 97 3b 2a a9 98 3c f3 3a ad 3c
       0.1979339 0.0046285214 0.018635351 0.021146273
000120 85 76 89 3c 32 6b f4 3c a2 b8 ca bb 41 9a 2a bd
       0.016780147 0.029836271 -0.0061865607 -0.041651014
000130 36 11 d5 bc b0 28 16 3c 87 7d 58 3d 79 48 91 3b
       -0.026009183 0.009164974 0.052854087 0.0044336882
000140 e4 2d e9 be 96 45 a9 3c 7c cd 01 bc 7d a9 c5 3f
       -0.45542824 0.020663064 -0.007922526 1.5442349
000150 94 3d 39 bc d4 4c 14 3b a0 f4 dc be e6 b8 21 be
       -0.011306185 0.00226288 -0.43155384 -0.1579319
000160 e7 ed 20 3b 78 db 76 3e a2 28 a5 be ce 50 37 bd
       0.0024555863 0.24107158 -0.32257563 -0.044754796
000170 29 0d e6 ba ec 61 94 3f 64 8f b0 be f7 0b 6f 3d
       -0.001755153 1.1592383 -0.34484398 0.05836102
000180 a5 e8 7c 3e b8 88 e0 3a be c0 de 3d 9d e2 1b bd
       0.24698122 0.0017130589 0.108766064 -0.038057912
000190 35 a8 e7 bd 8f 83 de 3d d1 6c 12 3d 8f 73 2c 3e
       -0.1131138 0.108649366 0.035748307 0.16840957
0001a0 93 1a f3 bf f1 30 63 bc 39 d9 f4 3d 0c ad 18 3c
       -1.8992485 -0.013866649 0.119554944 0.009318601
0001b0 89 9f ef bc 0e f3 70 bb f4 22 fd bd 67 59 6e 3b
       -0.029250877 -0.0036765966 -0.123601824 0.0036369206
0001c0 72 e3 39 3f ca 62 44 3c 52 a3 b5 be a9 79 d1 3c
       0.7261268 0.011986444 -0.35476166 0.025570707
0001d0 8b 7e 9c bd ce 29 01 be 3c 79 d0 3e 4e 3b 5c be
       -0.07641324 -0.12613603 0.40717494 -0.21506998
0001e0 39 d6 96 3d 18 21 43 3d af 3b a7 3d 12 c8 4f 3d
       0.073650785 0.047638983 0.081656806 0.05072791
0001f0 99 89 cf 3c 8e e8 7c bd db ff 09 bd f4 fe f8 3d
       0.025334166 -0.06174522 -0.03369127 0.121580034
000200 49 5b 1e 3d 31 d3 e6 be 75 4c 57 bc 20 dd fe 3e
       0.038661275 -0.45083 -0.013140787 0.4977808
000210 4e 5a 84 3e 9b 55 c6 3f e5 68 6b 3c 70 9c 15 3c
       0.25850147 1.5494875 0.0143682705 0.009131536
000220 48 c0 66 bc 70 5a 42 3e 3b 07 0e 3f d1 2e 9c be
       -0.014083929 0.18979812 0.5547978 -0.30504468
000230 14 39 2e 3d ce 8f 39 bb 84 7c 83 bc 4b ed ec bb
       0.042534903 -0.0028314474 -0.016050585 -0.007230436
000240 66 e8 f1 bb 50 c5 3f be de 56 34 3a c8 bc 65 be
       -0.0073824404 -0.18727612 0.00068793993 -0.22435296
000250 d1 85 60 3c ed 51 11 bd 56 fa 0b bf 63 2a 00 bd
       0.013703779 -0.03547852 -0.5467886 -0.031290423
000260 35 64 45 3e 8c 32 a1 bb d8 9d df be 04 35 02 3e
       0.19276507 -0.0049193557 -0.43675113 0.12715536
000270 2c 79 81 3d d4 8b b3 bb 12 75 12 3d 31 d4 63 bb
       0.0632194 -0.0054793153 0.03575618 -0.0034763927
000280 ad 2d 0c bf f3 2f 1d bf 3f cb 82 3c e3 5d 4d 3c
       -0.54757196 -0.6140129 0.015966056 0.012534591
000290 33 a1 e6 bc 3d 69 82 3d 50 c2 c7 bc 7e 0a ff 3c
       -0.028153038 0.06367729 -0.024384648 0.031132933
0002a0 56 08 95 3e 56 fe 07 bd f8 a4 d0 bb 14 5b f1 3c
       0.29107922 -0.033201538 -0.006367322 0.029462375
0002b0 b6 e5 9b 3c 50 71 61 bc 73 d1 a3 bc d1 49 cc 3d
       0.019030433 -0.013759926 -0.019997334 0.09975017
0002c0 99 05 84 bd b1 8c 9c be de 0b 8e 3e 4e 52 58 bd
       -0.0644638 -0.3057609 0.2774343 -0.052812867
0002d0 e9 6b 4e bc ba 71 97 3e d5 30 fd 3d b8 55 7e 3e
       -0.01259897 0.29578954 0.123628296 0.24837387
0002e0 2f 8c 21 bd 6d fc ce bd 3f 87 b2 bd 77 59 fc bd
       -0.03944033 -0.1010674 -0.087172024 -0.123217516
0002f0 41 e6 dd 3d f9 f0 4f 3d bb 9e 85 3d 73 84 a6 be
       0.10834933 0.05076692 0.06524416 -0.32522926
000300 63 1d 9c 3d ed 55 93 3d 4e 5a 51 3e 39 36 2e 3f
       0.076227926 0.071941234 0.20444605 0.6805149
000310 7b db 1d 3c 1a c5 d4 3e b2 bb e3 bc 90 7c c8 bd
       0.009634848 0.41556627 -0.027799461 -0.097893834
000320 79 b4 ac bd d7 cc db 3c ca 9e 7a bc d5 eb 84 bd
       -0.0843286 0.026831074 -0.015296647 -0.06490294
000330 5d bd 4c bd 70 f7 85 3d ea 30 11 bd 2a 9f f6 bd
       -0.04998528 0.065413356 -0.03544704 -0.12042077
000340 9d f7 5b bd f8 1a 59 3d 39 7b bc 3c cd 80 26 bd
       -0.05370294 0.053004235 0.023007976 -0.040650178
000350 83 49 12 3e 35 54 d5 3e f9 30 ea 3c da 42 60 bd
       0.14285855 0.41665807 0.028587805 -0.054751255
000360 76 4e c3 bc 17 9c b7 3d 86 b3 43 be 2f ee d3 bd
       -0.023841124 0.08965319 -0.19111452 -0.10348164
000370 f3 61 4a bf 04 2c 96 3e 28 ae 5a 3b 44 a9 99 bd
       -0.7905571 0.29330456 0.0033367965 -0.07502988
000380 fc 3d fd 3c 99 57 a6 3d b3 c7 9e be fb 50 c8 bd
       0.030913346 0.08122177 -0.31011733 -0.09781071
000390 2f 11 25 bd dc 6e ab bd de c0 b2 bd 2d eb 9e 3d
       -0.04029959 -0.08370754 -0.08728193 0.077597
0003a0 67 ee 40 ba 9b f4 6a 3d 2c a0 e6 bb 51 7c 16 3d
       -0.00073597435 0.05736218 -0.007038137 0.03673965
0003b0 2e fd a9 3c 7a cb fe 3d e4 5c 87 3d c8 db 87 bd
       0.020750608 0.12441154 0.06609514 -0.06633717
0003c0 c7 bb 86 bb 98 e5 09 bd ab fa ab bc 65 6c 02 3e
       -0.0041117403 -0.033666223 -0.020993551 0.12736662
0003d0 c7 1d ae bc c2 91 2a 3d 4e 84 93 3d f5 2c d7 3d
       -0.021254433 0.04164291 0.072029695 0.10506622
0003e0 12 d8 05 bd 38 f0 72 bd 66 34 b1 3d c2 4e 8b bd
       -0.032676764 -0.05931112 0.08652572 -0.06802131
0003f0 3b d7 1d bd b3 64 e1 3d 0e 51 2c bd ba d7 3f 3e
       -0.038535338 0.11005535 -0.042069487 0.18734637

bias f4 [2]
000000 2d 40 fd 3d c8 a8 91 3c
       0.12365756 0.017780676
