models/RNN_PAST5_FUTURE5_V2.pt (torch, 323498 bytes, 16 tensors)

weight_ih_l0 f4 [120, 2]
000000 d3 22 66 bf 0f 8c 57 3f 65 84 05 bf 40 34 e8 3e
       -0.8989689 0.8419809 -0.52155143 0.45352364
000010 ea 6d 61 bf 66 05 23 3e b8 cd d7 be 48 8d d0 3e
       -0.8805834 0.15920028 -0.42149138 0.4073279
000020 a2 1e 56 c0 0a 61 f5 bd a8 1f d1 3f dc 1e ae 3e
       -3.3456197 -0.11981399 1.6337786 0.3400792
000030 bb 7c 2a 3f 71 ad 23 bf ba 17 1a 3e 9a 0e 19 3e
       0.66596574 -0.63936526 0.15048113 0.14946976
000040 60 94 10 bf d6 51 10 3f e1 eb 0a c0 ff 81 9f be
       -0.564764 0.5637487 -2.170647 -0.31153867
000050 f3 3d f8 be 35 bb 06 3f 8b 25 bd 3d 72 b0 d1 3d
       -0.48484764 0.52629405 0.092356764 0.102387324
000060 92 9a d2 3d 53 5e 40 3c be d0 fa be 79 52 c6 3e
       0.10283388 0.011741239 -0.48987383 0.38734797
000070 aa 6e 90 be 3e 5c 48 be 77 82 82 c0 9f 2d f5 bd
       -0.2820943 -0.19566438 -4.078426 -0.11971592
000080 f0 a4 2e 3f cb cd 32 be aa 19 34 3e d2 5e 46 3e
       0.68220425 -0.17461316 0.17587915 0.19372109
000090 70 81 d8 be 7d f1 a2 3e ca 4d 7a be 6d ac 57 be
       -0.42286253 0.31824866 -0.24443737 -0.21061869
0000a0 96 48 38 bd 70 f7 bd 3e f9 9a 94 3e 6f 57 83 be
       -0.0449911 0.37102842 0.29024485 -0.25652644
0000b0 9b e3 7e be 6d 62 67 3e 0a 8c 45 40 e2 8b 91 3e
       -0.24891512 0.2259614 3.0866723 0.28427035
0000c0 f4 bb 87 3e a0 64 cc bd be c7 d6 3d e7 71 ae 3c
       0.26510584 -0.0998013 0.104873165 0.021294547
0000d0 5d 43 17 3e b6 d8 db bd 11 61 fb be 9c 46 88 3d
       0.14771791 -0.10734694 -0.49097493 0.06654093
0000e0 a6 96 a3 bd 19 63 25 be fb ae ef 3e 3f cc 0f 3e
       -0.07987718 -0.16151084 0.46813187 0.14042757
0000f0 08 19 9d 3f 5c e7 88 bf 81 b5 0a 3e 50 c7 4c 3e
       1.2273264 -1.0695605 0.13545801 0.19997907
000100 00 a6 99 3d e6 18 b7 bd c4 20 dc be 4a 69 9c 3e
       0.07502365 -0.08940296 -0.42993748 0.3054908
000110 97 f9 98 3f 13 78 a3 3d 43 d3 71 bd 1b 9d 4a bf
       1.1951169 0.07981887 -0.059039366 -0.79145974
000120 54 8c 00 3f 54 be 19 3e 6f b2 12 40 e1 3e 5f be
       0.50214124 0.1501401 2.2921407 -0.2180133
000130 67 bd 08 be 0b 22 08 be 5d 6b 26 bc a8 35 27 bf
       -0.13353501 -0.13294236 -0.010157433 -0.6531625
000140 90 6d a8 be d9 1f 4b 3f 0e fd e5 3e 7c 76 3a bc
       -0.3289609 0.7934547 0.44919628 -0.011380788
000150 a9 1b 28 3f 07 96 04 3e 03 07 2e 3d 7b b4 77 be
       0.65667206 0.12947856 0.042487156 -0.24189942
000160 89 d6 b9 3f 70 3a 86 3f 0a 55 89 be a4 a4 da 3e
       1.4518596 1.0486584 -0.26822692 0.42703736
000170 4e 44 1a 40 01 49 f9 3e 7b 23 4e 3e cc fc d8 3d
       2.410419 0.4868851 0.20130722 0.10595092
000180 f5 e4 49 bf 64 fb 28 3f 64 d6 93 3e 61 0a 0a 3e
       -0.78864986 0.6600859 0.28874505 0.13480522
000190 e9 fc b8 ba c7 48 84 be 1d b2 a6 3e c4 1e 7b 3e
       -0.0014113459 -0.25836775 0.32557765 0.24523455
0001a0 66 46 1d bf e4 47 39 be 38 6b 3b 3f d6 f0 eb bd
       -0.61435544 -0.1809383 0.7321048 -0.11520545
0001b0 3c 5d cd be 7b d1 9f be 32 fe 94 3e e3 c4 15 bf
       -0.40110195 -0.31214508 0.29100186 -0.5850355
0001c0 08 69 36 be 52 98 0c 3e d3 14 72 bf 58 6b 3a be
       -0.17813504 0.1372998 -0.94563025 -0.18205011
0001d0 e8 63 5f 40 d5 9c c0 be 85 09 fd bd 38 87 9b 3d
       3.4904728 -0.37619653 -0.12355331 0.0759415
0001e0 50 09 20 bd 6d ef 54 3e 69 ad a8 3e e9 92 6c 3e
       -0.03907138 0.20794459 0.329448 0.23102917
0001f0 cf 91 7b 3e 54 62 3a be 05 99 93 3d e5 a4 f9 3d
       0.2456734 -0.18201572 0.072069205 0.12189654
000200 06 ee 62 c0 85 39 a0 bb 71 6e 4a 3f de 0c fd 3d
       -3.5457778 -0.0048896694 0.7907477 0.1235597
000210 1a 43 90 3e a1 fe 01 3e ca 80 be 3e c2 11 08 3e
       0.28176194 0.1269479 0.37207633 0.13288024
000220 0f 4f 52 3d 12 b8 04 bf 74 45 ae be c0 6c 1c 3f
       0.051344927 -0.5184337 -0.34037364 0.6110344
000230 ac 3a 7c 3e 64 e5 58 3e d7 de d6 bd 0a 49 3e 3e
       0.24631757 0.21181256 -0.10491722 0.1858255
000240 30 03 10 3e 62 a3 25 be f0 0c 38 bf 27 d1 26 3f
       0.14063716 -0.16175607 -0.7189474 0.6516289
000250 6a 82 9e 3d 0d c5 b0 bd 4f da 0d bf c4 23 5e 3f
       0.07739718 -0.086313345 -0.5541124 0.86773324
000260 f6 36 13 bd 05 14 98 be 32 d1 ff 3d 49 87 13 3e
       -0.035941087 -0.29702774 0.12491073 0.14407076
000270 68 49 e3 3e 8a 66 22 3e 9e 62 48 bf 1b 5d 2b 3f
       0.44391942 0.15859428 -0.7827548 0.6693894
000280 45 21 af 3f 96 9b a1 bf 8b 00 cb be 4d 12 29 3e
       1.3682028 -1.2625606 -0.39648852 0.16510887
000290 c1 ca 4a be 79 21 ee 3e ea 13 71 3e 7b 6c 91 3d
       -0.19803907 0.46509913 0.23542753 0.07100769
0002a0 89 31 b7 3e d8 59 c3 be c1 e8 15 3f 25 48 86 3e
       0.3577998 -0.38154483 0.5855828 0.26226917
0002b0 af 5a 23 3e 2c 39 a3 be 9b dd 1d 3f b7 57 1f 3e
       0.15952562 -0.31879556 0.6166627 0.15560804
0002c0 2e f9 d1 3e c9 21 2f be 7f 22 08 3f dc 81 1f bf
       0.41010422 -0.17102732 0.53177637 -0.62307525
0002d0 9f 31 b0 3c a4 02 12 3e 31 6f f1 3e 32 24 32 bf
       0.021508036 0.1425882 0.47155145 -0.6958648
0002e0 70 3d 15 be cd c1 1f 3e b3 2b fa be bc 09 6b be
       -0.14574218 0.15601273 -0.48861465 -0.22952932
0002f0 3f 41 1d 3f 4b 04 18 bf 31 85 75 c0 c8 1f 4b bf
       0.6142768 -0.5938155 -3.8362544 -0.7934537
000300 46 7c 05 bf f0 88 02 3f 27 9b 43 bf f9 17 10 bf
       -0.5214275 0.509902 -0.7640862 -0.5628658
000310 c9 2d 8d be 33 81 67 be 82 0d ef bc 71 2b b8 3c
       -0.27573994 -0.2260788 -0.029181246 0.022481652
000320 5d 01 f1 be 4e 60 de bd 32 f6 19 3f 12 57 86 be
       -0.47071353 -0.108582124 0.6014129 -0.26238304
000330 6d 37 23 3e 05 93 21 3e b1 88 0a 3e 9f 2e 30 3e
       0.15939112 0.1577874 0.13528706 0.17205285
000340 18 95 29 c0 20 da ec 3f 9f 21 8c 40 5d 37 a9 be
       -2.649725 1.8504066 4.379104 -0.3305005
000350 19 f1 98 be 19 f3 37 3e 8a f0 d2 bd 4b 7d 16 bf
       -0.29871443 0.17963828 -0.102997854 -0.5878493
000360 bf 1e 4a 40 09 ae 9d 3e 34 a9 0d 3e a4 7c bb 3e
       3.1581266 0.3079684 0.13834077 0.3661853
000370 82 f2 43 3c 6a 7f f9 be 65 6a 35 bf e8 9e 1b 3e
       0.011959674 -0.48730022 -0.7086547 0.15197337
000380 b1 31 82 40 18 cd a0 3e 5d b1 1f 3f 57 05 a1 3d
       4.068566 0.31406474 0.6238001 0.078623466
000390 ba 2b 91 bc 6a da 9d be b4 62 d0 bd 80 2c 82 bd
       -0.017721046 -0.308307 -0.10175076 -0.06356144
0003a0 aa 5b 0f 3f d2 72 3f be 7f 94 60 bd b0 97 dc 3e
       0.55999243 -0.18696144 -0.054829117 0.43084478
0003b0 40 41 01 3f 3e 90 bd bc 24 a3 c5 be e0 3a 81 3e
       0.5049019 -0.02314007 -0.3860103 0.2524023

weight_hh_l0 f4 [120, 120]
000000 0e 51 8d be ff 78 d9 bd 59 f0 81 bf dc 59 04 3d
       -0.27600902 -0.10618781 -1.0151473 0.03231226
000010 7c cf d5 3e 2f 70 3f 3e 78 07 cf bc 3c ad a6 3e
       0.4175986 0.18695138 -0.025272116 0.32554042
000020 9d 10 b8 be 40 59 44 bf 87 b9 16 be d6 3e d2 be
       -0.35950175 -0.76698685 -0.1471921 -0.41063565
000030 39 ac 84 be 7f bd 51 bf a6 a2 8d bf e0 4c 80 be
       -0.25912645 -0.81929773 -1.1065261 -0.2505865
000040 99 62 a1 bf 67 10 4e 3f 4a 34 f8 3e 66 0e 69 3f
       -1.2608215 0.8049378 0.48477393 0.91037595
000050 d7 16 9f be 4b 9e 9c bf 77 66 82 3e a1 d4 42 3d
       -0.31072113 -1.2235807 0.254688 0.04756606
000060 4e e5 0a bd 06 7e 27 3f aa de f4 be 1a f5 b5 3d
       -0.03391009 0.6542667 -0.4782613 0.0888464
000070 f2 45 87 bf 1f 63 7e 3f 1d 68 f6 3e bc b1 e4 3e
       -1.0568221 0.99369997 0.48126307 0.4466685
000080 e3 b6 09 bf aa 8b d7 3e 95 61 17 bf 46 54 a5 3e
       -0.5379469 0.42098743 -0.59133273 0.32290858
000090 4e 7d b6 3e 13 30 64 3e 41 43 18 be 28 2e 91 3d
       0.35642475 0.22283964 -0.14869405 0.07088882
0000a0 c1 10 0c 3d 12 12 2d 3e f5 fb b4 3e d2 70 74 3f
       0.034195665 0.16901425 0.35348478 0.9548465
0000b0 ec fb 20 bf ee 64 ed be 12 32 b9 bc 40 8f 72 3f
       -0.628844 -0.46366066 -0.022606883 0.9474983
0000c0 3b aa 54 bf 3f 05 8f 3e 63 d9 93 3f 8e d0 3b 3f
       -0.8307225 0.2793369 1.1550716 0.73365104
0000d0 99 cb 0b 3f 51 eb c1 3e f5 ca 82 bd 5d e0 c4 be
       0.5460754 0.37874845 -0.06386367 -0.38452426
0000e0 61 7d 3e 3e 02 56 eb be f8 c8 89 3f 2e a3 d9 3e
       0.18602516 -0.45964056 1.0764456 0.4250731
0000f0 c3 e6 0f 3d a7 82 ef 3d e4 e2 c4 be f1 3a 76 bf
       0.03513218 0.11694842 -0.38454354 -0.9618369
000100 7d d5 a3 bf ca 66 8b 3f 0f f1 f0 be cf d9 05 bf
       -1.2799526 1.0890744 -0.47058913 -0.52285475
000110 c1 73 10 bf f3 68 da be 0c e7 40 3f 16 2c c8 3e
       -0.56426626 -0.42658195 0.7535255 0.39096135
000120 17 f5 d9 3d a0 37 2e 3e 31 77 09 bf 22 83 f4 bd
       0.1064245 0.17013407 -0.53697497 -0.11939074
000130 cf e8 d6 3e cf 05 fe bd 5b e6 43 3f 7e 93 cc be
       0.41974494 -0.12403452 0.7652337 -0.39956278
000140 0e 55 37 3f 5b 7a de 3f aa 2b 8a 3e cd 10 19 bf
       0.7161416 1.738109 0.26986438 -0.5979126
000150 4b 73 b9 be c1 6a 50 3f b1 82 4a 3f 5e 51 dd 3e
       -0.36220774 0.81412894 0.7910567 0.4322614
000160 95 ca 6e 3f 2b e0 26 3f 36 00 40 be a7 89 7c 3f
       0.93277866 0.65185803 -0.1875008 0.9864754
000170 78 c8 91 bd da bc a8 be 85 58 5e 3e b1 0f 9f bd
       -0.071183145 -0.32956582 0.21713455 -0.07766665
000180 bf 9f d3 3e 06 9c 89 3e bd d6 61 3e 42 da a0 bd
       0.41332814 0.2687685 0.22054572 -0.078541294
000190 07 50 32 bf cd 6e cd 3e 25 1e 99 be 91 a9 3b 3e
       -0.6965336 0.40123597 -0.2990581 0.18326403
0001a0 80 37 7f bf c5 df 62 3f 05 44 e2 be fe f1 1a 3f
       -0.9969406 0.88622695 -0.4419252 0.605255
0001b0 eb 50 4e be 29 2f 96 3d 9b 42 7a 3f 54 c0 34 bf
       -0.20148055 0.07333214 0.9775788 -0.7060597
0001c0 88 b5 31 bf 14 c6 35 bd 32 e7 30 3f 69 4f 2b bf
       -0.6941762 -0.044378355 0.69102776 -0.66918045
0001d0 84 11 cd 3e 48 e9 04 bf 6a 32 8a 3e 67 d8 db be
       0.40052426 -0.5191846 0.26991588 -0.4293854
0001e0 bf 0b bf bd 56 7f 81 be 17 0e bf bf 25 9d 0b bf
       -0.09328412 -0.25292462 -1.4926175 -0.5453666
0001f0 d0 88 0c bf cf 5f 14 3e 56 94 74 be 80 6e 4e be
       -0.5489626 0.14489673 -0.2388471 -0.2015934
000200 d8 e0 2e bd 19 b1 14 bf 41 a7 b6 be d5 f5 e7 3e
       -0.042694896 -0.5808273 -0.3567448 0.45304742
000210 a6 14 26 bf 3e 8d 29 3e 8a 03 81 bf a0 ef 03 bf
       -0.64875257 0.16557786 -1.0079205 -0.51537514
000220 9c 9a 1b be e4 50 ab 3f c2 83 35 bf d3 40 69 be
       -0.15195698 1.3384061 -0.7090417 -0.22778635
000230 64 66 b3 3e 27 02 c9 be 9a d2 17 bf 04 ae c5 3e
       0.35039055 -0.39259455 -0.5930573 0.38609326
000240 78 85 86 3e 8e c8 22 bc 61 00 2a 3f 97 a7 0b 3f
       0.26273704 -0.009935511 0.6640683 0.54552597
000250 f3 75 57 bf 49 79 4d 3e 17 5d 09 3f 1b e1 a0 be
       -0.8416435 0.20065798 0.5365767 -0.31421742
000260 3f 45 29 3f a4 36 98 be c0 d4 a0 bd 08 84 f5 3e
       0.66121286 -0.29729187 -0.07853079 0.47952294
000270 db 55 0b be e9 9f 7d 3f 92 ff 4d 3e 2e 7a 0e 3f
       -0.1360697 0.9907213 0.20117024 0.5565518
000280 09 5c bb 3f ee d6 ef bd 2b a8 bf 3f a7 7f a0 3d
       1.4637462 -0.117109165 1.4973196 0.07836848
000290 bc 0d 01 bf 6b 48 af be 40 29 41 be dd 21 e6 3d
       -0.5041158 -0.34234938 -0.18863392 0.11236928
0002a0 13 18 eb be 0e 4d 28 3f 68 12 01 3f 3f bb d2 3e
       -0.45916805 0.65742576 0.5041871 0.41158482
0002b0 3a 66 90 be d2 32 95 3f 0c 2a eb 3d a9 8c d6 bd
       -0.28202993 1.1656134 0.11482629 -0.104760475
0002c0 82 3b 42 3e 19 bc 9d bd 3a a4 a9 3f b8 e8 1c 3f
       0.18968013 -0.077018924 1.3253243 0.612926
0002d0 7f 86 e3 bd d8 ba 7a bf ad e4 d8 3e 20 1e fd 3d
       -0.111096375 -0.9794135 0.42361966 0.123592615
0002e0 44 b4 bb bf 57 c5 7d be 6f ae 0f be f7 56 97 be
       -1.4664388 -0.2478231 -0.14031385 -0.29558536
0002f0 1d 88 7d 3e de 88 e5 be 5c 0c 81 3f 10 95 33 3f
       0.24758954 -0.44830984 1.0081897 0.70149326
000300 a6 5c 9a 3f b5 f0 b7 bd f0 4d f2 be d3 d7 b9 3e
       1.2059524 -0.08981458 -0.47325087 0.36297473
000310 9b d7 de 3d 33 3e 2f be 74 51 07 be c0 a4 d5 3e
       0.10880967 -0.17113571 -0.13214666 0.41727257
000320 bd 46 a8 3f d5 d4 98 3f 0d e9 b1 bb 5b d2 b0 bc
       1.3146588 1.1939951 -0.005429393 -0.02158468
000330 62 cf 62 3d 34 0b e0 3f 33 76 52 3f 05 6d 1f 3f
       0.055373557 1.7503419 0.8221161 0.62275726
000340 2d 13 1b be f8 73 36 3e 9a da 87 3f 65 83 7a 3f
       -0.15144034 0.17817676 1.0613587 0.9785674
000350 6b 22 87 3f 6b c0 a6 bf b6 46 18 3b 6b d4 86 be
       1.0557379 -1.3027471 0.0023235506 -0.26333937
000360 1a 42 68 3e ba ec 66 3f d2 89 6d bf 1c 37 86 bf
       0.22681466 0.90204966 -0.9278842 -1.0485568
000370 1b 89 06 3f 1d ae b6 3f a8 c7 86 3f cd 4e 35 bf
       0.52552956 1.4271885 1.052968 -0.70823365
000380 a3 ca f5 bf 5c c9 b0 3e 80 46 2b 3e f2 d4 ee be
       -1.9202465 0.34528625 0.16726112 -0.4664684
000390 b4 8e 45 3f 01 70 79 be 76 2a fa 3d d1 c9 74 bf
       0.7717087 -0.24359132 0.1221513 -0.9562045
0003a0 75 e2 90 3e 88 7f 38 3f cd 2c 0a 3e 72 0d af 3f
       0.28297773 0.720696 0.13493653 1.3675978
0003b0 e5 8f bf 3f 72 c0 77 bf a6 10 ac 3f 56 40 2e 3e
       1.4965788 -0.96778023 1.3442581 0.1701673
0003c0 63 90 15 3f e8 49 81 3e c4 22 7a be 39 44 c0 3f
       0.5842344 0.25251698 -0.24427325 1.502082
0003d0 99 45 b4 be 3c 3a 75 3f 10 3d 28 bf 7e 0b 82 3e
       -0.3520935 0.95791984 -0.65718174 0.25399393
0003e0 af 25 2d 3f c0 fe 33 bf 2a fe 17 3f e3 0d 17 3e
       0.67635626 -0.7031059 0.593722 0.14751391
0003f0 e5 3f 8b 3f ea f0 d1 3f bd ac 26 be bb 8d 83 bf
       1.0878874 1.6401646 -0.16276832 -1.0277628

bias_ih_l0 f4 [120]
000000 2a 80 99 be 70 9a 7d bd cd 40 7f 3f db 15 5c 3f
       -0.29980594 -0.06191486 0.99708253 0.8597085
000010 8d f5 0b be 75 87 dd bc 46 3f bf 3e 8f a4 f6 bf
       -0.13667889 -0.02704213 0.3735296 -1.9268969
000020 d2 d4 a4 3e 9f 1c 9f bc f8 24 f1 bc 31 43 9a 3f
       0.3219362 -0.019422827 -0.029436573 1.2051755
000030 4a 23 8e 3d 18 21 aa 3f d4 35 f4 3f 47 d7 b5 3f
       0.069403246 1.329135 1.9078927 1.4206322
000040 1c 00 b8 3f b5 06 e6 bf 9e fa 9d 3e dd 75 9f be
       1.4375033 -1.7970797 0.30855268 -0.3114461
000050 d5 ca 8d bf 9c c9 e5 3f ea 66 fe 3f 0c 00 0a bf
       -1.1077524 1.7952151 1.9875157 -0.5390632
000060 17 6d 75 bf dc 83 8f bf a9 f0 4c 3f 1a 31 75 3e
       -0.9586958 -1.1212115 0.8005472 0.23944512
000070 9d a4 cf 3f ec 3e 2d 3d d8 b1 90 3c bf 53 fe bf
       1.6222111 0.042296335 0.017662928 -1.9869307
000080 76 2c 6d bf 09 e7 ba be 3f 02 c0 3d 1b e2 f8 be
       -0.92645967 -0.3650439 0.093754284 -0.48610005
000090 25 c2 fe bf b5 8b bb be 21 56 d5 3f 49 d6 d4 be
       -1.9902998 -0.36630026 1.666691 -0.41569737
0000a0 fb d3 0a 3e b4 c4 14 c0 6b ac f2 bf f0 ca b7 bf
       0.13557427 -2.3245058 -1.8958868 -1.4358807
0000b0 de c9 85 3e 4c e2 9d 3f 89 78 10 3f bc 08 d6 bf
       0.26130575 1.2334685 0.5643392 -1.6721416
0000c0 3c eb 8d 3f 94 89 f4 bf 98 9b a9 bf 30 f4 c1 bf
       1.1087413 -1.9104486 -1.3250608 -1.5152645
0000d0 19 8d f0 3d f7 23 f9 bd 52 8d 3e 3d d3 44 3d be
       0.11745662 -0.12165063 0.046521492 -0.18483286
0000e0 69 c8 87 3e 58 5f 0a 40 b9 95 92 be 90 35 b3 bf
       0.26520088 2.1620693 -0.28629854 -1.4000721
0000f0 e8 4c 10 c0 c0 cc 1c bf 75 9a 03 40 19 74 d8 3f
       -2.254694 -0.61249924 2.0563023 1.691043
000100 e7 41 31 bd 57 10 ca bf bc ab cf be 3b a4 fa bf
       -0.04327574 -1.5786237 -0.4056071 -1.9581369
000110 c2 42 dc bc 1d dd bf 3e bf 36 fe bf 5d f0 c3 bf
       -0.026887301 0.37473384 -1.9860457 -1.5307728
000120 42 a3 36 bf be ab 8d 3d 31 22 bb 3f ed 82 f0 bd
       -0.7134286 0.06917523 1.4619809 -0.11743722
000130 ee 20 cc bf 0e 26 91 bf f6 a6 b4 bf 2e ce e3 3d
       -1.5947549 -1.1339738 -1.4113452 0.1112331
000140 dc c5 3e bf bb 0d ff bf 27 fd c0 3f d6 a8 f3 3f
       -0.7452066 -1.9926065 1.5077256 1.90359
000150 82 38 cf bd ca 31 c8 be 9e 74 15 c0 93 7c 07 c0
       -0.101182 -0.39100486 -2.3352427 -2.1169784
000160 6e d0 3e 3f e8 9d ed 3d 54 28 c3 bf 86 82 89 3e
       0.7453679 0.11602384 -1.5246682 0.26857394
000170 ed 71 c3 bf 54 21 9d 3d c6 21 fe bd 82 43 0a bf
       -1.5269142 0.076723725 -0.124087855 -0.5400926
000180 dc 96 06 3f 42 61 e4 bf f5 b5 75 bd cf 0e 7e bf
       0.52573943 -1.7842181 -0.05998798 -0.99241346
000190 e2 d6 c7 3f 5c cd 25 bf 96 e7 f1 bf fb eb b0 bd
       1.5612452 -0.6476648 -1.88988 -0.0863876
0001a0 33 8d b1 3e 82 7f 63 bf 7e d3 f0 3d fa 49 af bf
       0.3467804 -0.88866436 0.11759089 -1.3694451
0001b0 01 9e cd 3e 79 32 d2 3f de 36 c4 bf 5c 96 01 bf
       0.4015961 1.6421653 -1.5329244 -0.50620055
0001c0 10 e4 ba 3e ca 36 d2 3f ee 76 4f 3f 2b 29 93 bf
       0.36502123 1.642297 0.8104085 -1.1496938
0001d0 d8 aa 56 bf a2 66 a0 3f 8a d9 aa 3c 54 11 ad 3e
       -0.83854437 1.2531321 0.020855684 0.33802283

bias_hh_l0 f4 [120]
000000 d4 6a 8f be 69 00 a3 3c b6 b2 6e 3f e9 81 4b 3f
       -0.2801119 0.019897657 0.9324144 0.794951
000010 cd fa 59 be 9b 1d 09 be 83 ac b9 3e e1 73 05 c0
       -0.21287079 -0.133902 0.36264428 -2.0851977
000020 28 4b 82 3e 8a 0f 25 bd 8c d0 dd bd 69 b7 aa 3f
       0.25447965 -0.040298022 -0.10830793 1.3337222
000030 d4 08 63 bd 2e d1 ab 3f 94 9d e7 3f 6f f1 b7 3f
       -0.05542834 1.3423212 1.8094964 1.4370555
000040 c6 3f a6 3f 0f db e5 bf 0a 29 8f 3e 52 be bc be
       1.2988212 -1.7957476 0.27960998 -0.36863953
000050 8f 49 89 bf c2 0b e1 3f 41 13 fd 3f 9c 69 28 bf
       -1.0725573 1.7581713 1.9771501 -0.6578615
000060 91 a1 65 bf ec 18 8f bf 0d d1 70 3f e2 1e 4c 3e
       -0.89699656 -1.117948 0.94068986 0.19933656
000070 c3 7e d6 3f 4a 41 a4 bd 7f ff ca bb 49 89 ff bf
       1.6757435 -0.080202654 -0.0061950083 -1.9963771
000080 1e b8 80 bf 3e b0 75 be 51 a7 19 3e 0d 4a ff be
       -1.0056188 -0.23993012 0.15005232 -0.49861184
000090 e7 ce fb bf 66 ca 5d be 3b 26 d9 3f 27 48 e0 be
       -1.9672517 -0.2165924 1.6964792 -0.43805048
0000a0 64 fc e0 3c 01 3b 15 c0 3f 83 eb bf ec 11 b4 bf
       0.0274641 -2.3317263 -1.8399428 -1.4067969
0000b0 8e d0 ab 3e 1c 69 8c 3f 6f 4f 10 3f f2 42 d9 bf
       0.33557552 1.0969577 0.56371206 -1.6973555
0000c0 9b 15 77 3f 24 f0 f6 bf 32 02 b2 bf 60 43 be bf
       0.9651734 -1.9292035 -1.390692 -1.4864311
0000d0 d5 cd 0d bc 91 a6 81 bd e8 40 56 3d 24 7b 9b be
       -0.008655031 -0.06330598 0.052307993 -0.30367386
0000e0 00 6c 76 3e 3d 98 0d 40 6d c2 da be 34 52 b0 bf
       0.24064636 2.212417 -0.4272646 -1.3775086
0000f0 16 5a 0e c0 aa f9 35 bf 20 ad 07 40 31 8a e1 3f
       -2.2242484 -0.7108408 2.1199417 1.7620298
000100 a1 bd 44 3d 05 d9 d7 bf 18 e1 75 be c8 2d 05 c0
       0.048032407 -1.6863104 -0.24011648 -2.0809193
000110 5f d9 18 be 4b 82 b0 3e d9 a0 f8 bf 97 88 d8 bf
       -0.1492667 0.34474406 -1.9424087 -1.6916684
000120 fa 1b 1d bf fc b7 8a 3d 57 c2 c0 3f cf 4e 86 be
       -0.61370814 0.067733735 1.5059308 -0.26232
000130 19 6a d5 bf 06 cb a1 bf b2 76 bf bf 4a 85 3a 3d
       -1.6673003 -1.2640083 -1.4958098 0.04553727
000140 da 97 3f bf 9a 65 04 c0 0d 6b c4 3f c2 9b ee 3f
       -0.7484108 -2.0687013 1.5345169 1.8641284
000150 bc 2b 4c be 44 42 b3 be de f7 15 c0 bc b5 00 c0
       -0.19938558 -0.35011494 -2.3432536 -2.0110922
000160 66 18 24 3f e1 83 94 3d de 7a c8 bf 4a da 9d 3e
       0.6409973 0.072517164 -1.5662496 0.30830604
000170 bd 86 c3 bf 62 62 68 3d 71 e0 e8 bd 9e 5f e0 be
       -1.5275494 0.05673445 -0.11370934 -0.4382295
000180 4f 01 d9 3e c2 a9 d8 bf b8 f3 9c bd d4 46 58 bf
       0.4238381 -1.6926806 -0.07663673 -0.84483075
000190 b1 6c c9 3f 5f 58 22 bf b6 c5 e9 bf 4d 7b d5 3b
       1.5736295 -0.63416094 -1.8263462 0.0065149427
0001a0 93 1e 9a 3e d6 87 5e bf a2 50 00 3e a2 99 a7 bf
       0.3010145 -0.8692602 0.12530759 -1.309376
0001b0 31 c5 a1 3e 79 8a d4 3f 9c 17 d1 bf 13 bd 1c bf
       0.31595758 1.6604759 -1.633533 -0.61226004
0001c0 92 89 97 3e fc b1 d6 3f c2 14 27 3f 61 b3 9c bf
       0.29597145 1.6773067 0.6526605 -1.2242242
0001d0 66 12 3c bf ac 17 a4 3f 03 21 07 be 9e 58 ad 3e
       -0.73465574 1.2819724 -0.13196187 0.33856672

weight_ih_l1 f4 [120, 120]
000000 50 3a 23 bf 73 81 fe be b6 e9 48 be 5b af b6 bf
       -0.6376085 -0.49708137 -0.19620404 -1.4272264
000010 e8 e7 6c 3d 91 34 ba 3e 6c 72 d8 3e 46 08 34 bf
       0.05783835 0.3636823 0.42274797 -0.70325124
000020 05 2e 65 3c e8 22 d4 3e b0 c8 ab be 72 ef e1 3d
       0.013988023 0.4143288 -0.3355155 0.11031999
000030 24 f3 45 bf 07 38 8c bd bc ab 71 3f 23 a5 a6 3d
       -0.7732413 -0.06846624 0.9440267 0.08136966
000040 37 60 56 3f 08 13 0f ba 70 e8 a8 bf 24 75 16 be
       0.8374056 -0.0005457853 -1.3195934 -0.14693123
000050 97 5b fc be 66 bb 8d 3e fe 74 b8 bd ed 39 2a 3e
       -0.49288628 0.27682036 -0.090066895 0.1662366
000060 b5 b6 09 bf d2 b4 12 3e 7a fb cb 3d 49 89 48 bd
       -0.53794414 0.1432679 0.09960075 -0.04895905
000070 a6 0d 94 3f 5f 93 36 bf 48 71 16 3f 73 b0 55 bf
       1.1566665 -0.7131862 0.58766603 -0.83472365
000080 98 5c a2 3f 28 88 be bf 50 57 3b 3f 01 2f 59 3f
       1.2684507 -1.4885302 0.73180103 0.8483735
000090 bf 05 b3 bf 64 8d 93 bb 29 12 67 3f 6c 9e 71 3e
       -1.3986129 -0.004502939 0.90262085 0.2359559
0000a0 55 0e 74 bf 99 18 0c bf af af 89 bf ee f9 38 bf
       -0.9533437 -0.54725033 -1.0756739 -0.7225636
0000b0 8d c6 95 3e cb 4f ac be 05 92 ab 3e bb 9e be bf
       0.29253045 -0.33654627 0.33509842 -1.4892191
0000c0 c0 1a bd bd 4d 53 a7 bf 35 9d 44 be 63 5b 78 bf
       -0.09233618 -1.3072296 -0.19200595 -0.97014445
0000d0 e9 eb 9d bd ed c9 94 3e bd ce 54 3f a2 b7 7c 3f
       -0.07711012 0.29060307 0.8312796 0.987177
0000e0 2c a8 14 bf 97 52 ad 3f e1 01 17 bf ff c4 4a 3f
       -0.5806911 1.354083 -0.5898724 0.7920684
0000f0 29 37 bb be d0 a4 51 bf ee 36 9a be d8 a1 30 3f
       -0.3656552 -0.8189211 -0.30120033 0.68996954
000100 51 27 30 bf 25 eb 83 bf 96 81 69 3f 25 90 42 bd
       -0.6880999 -1.0306135 0.9121336 -0.04750075
000110 47 63 a3 3f 46 f7 2a bf 16 15 72 bf 74 11 06 be
       1.2764672 -0.6678356 -0.94563425 -0.13092595
000120 cf c9 b4 3e 1f 2e 16 bf 2c 49 89 bf 75 ef 98 be
       0.35310218 -0.58664125 -1.0725455 -0.2987019
000130 07 90 5e be 5e 9d 9e bc 4a 9e 12 bf 0a f0 87 bd
       -0.2173463 -0.019362148 -0.5727278 -0.06637581
000140 de 8c f9 be 3b d4 0f bf b9 8f 13 bf 31 b6 9a 3d
       -0.48740286 -0.56183213 -0.5764118 0.075542815
000150 04 55 00 40 0b 6c 8e 3e ac 09 fd be 95 a6 2b bf
       2.005189 0.27816805 -0.49421442 -0.6705106
000160 dd 4b 94 be a3 c5 95 3e 59 e3 25 3e f5 39 de 3e
       -0.2896413 0.29252347 0.16200007 0.43403593
000170 88 41 df 3e 1b 0f f5 be 4e 77 25 3e 67 51 1c bf
       0.43604684 -0.47863087 0.16158792 -0.6106171
000180 2a 35 86 bf 6b 36 2a 3f f5 e0 b1 be fb ce a8 3e
       -1.0484974 0.66489285 -0.3474194 0.32970414
000190 dd c0 6a 3f 2c 58 26 3f ef 4b 02 3f e4 56 96 be
       0.91700536 0.6497829 0.50897115 -0.29363167
0001a0 7a 95 18 3f 96 9e 07 bf 2d 56 10 bf ba 5e c1 bd
       0.59603083 -0.5297636 -0.56381494 -0.09441896
0001b0 ae 75 9a 3e ee 08 c8 bf c3 94 fd be 3f bb 9d bf
       0.30167907 -1.5627725 -0.4952756 -1.2322768
0001c0 6c 3d f4 3e 2d 53 c6 3d 92 8b 21 3e 04 bd b3 3f
       0.4770311 0.09683833 0.15775898 1.4042058
0001d0 07 ab ef 3e 7f 90 61 bd 18 83 41 3f c4 2d 92 3e
       0.4681017 -0.055069443 0.7559066 0.2855054
0001e0 9b 67 b6 be 29 97 13 be c2 84 54 bf e5 fd 0a 3e
       -0.3562592 -0.14413132 -0.8301507 0.13573416
0001f0 dc a3 75 be 15 c7 2e 3f c6 6f 1e 3f 49 b6 bc be
       -0.23988289 0.68272525 0.618893 -0.36857823
000200 45 ea 78 3e 42 f8 0a bf 46 2a bf 3d 68 ed d8 3e
       0.24308117 -0.5428506 0.09334235 0.42368627
000210 ae 1f 91 3d 03 1d f9 3e 16 0f 32 3e 9c 92 80 bf
       0.070861205 0.48654947 0.17388567 -1.0044742
000220 66 77 9c 3a d2 a8 72 be a7 ce f3 be 5e 16 58 3d
       0.0011937439 -0.23697212 -0.476186 0.052755706
000230 c8 a9 2b bf 9f f9 e5 3e 2b c9 a2 3c 89 f6 cb 3e
       -0.6705594 0.44917008 0.019871315 0.3983653
000240 6e 3c 8b 3e 5f d4 07 bf 27 ac 83 3e a1 ce 3a bf
       0.27194542 -0.5305843 0.2571728 -0.7297154
000250 68 82 70 3f d2 99 9d 3e 21 37 5e 3c 6d 6d 06 bf
       0.93948984 0.30781418 0.013562948 -0.5251072
000260 14 d7 98 be db ff 10 be 1f 4f 5a be 8e cc 89 bd
       -0.29851592 -0.14160101 -0.21319245 -0.06728469
000270 de e1 7c bf 2c 4d 50 3f 3e 16 0b 3f 60 7d ab be
       -0.98782146 0.81367755 0.54330814 -0.3349409
000280 ba 81 00 bf ac 34 96 3e 00 d0 f7 be 09 09 ff be
       -0.5019795 0.2933706 -0.4840088 -0.4981158
000290 64 25 0f 3f d0 3d 1a bd 74 8b 97 3e 17 4e ac 3d
       0.5591643 -0.037656605 0.29598582 0.08413332
0002a0 f7 e8 37 be 22 48 9b 3e 59 27 f8 3e 6a ec f5 3e
       -0.17959963 0.3032847 0.4846752 0.48031932
0002b0 00 b0 29 bf f5 2e ba 3f aa 15 f3 be 80 2f c7 be
       -0.6628418 1.454558 -0.47477466 -0.38903427
0002c0 3e 5f 00 be 3e 4e 85 bd ea 3f 10 bf 60 19 db 3e
       -0.12536332 -0.06509064 -0.56347525 0.42792797
0002d0 c9 18 78 bf 51 a0 c1 3e 42 7a 92 3f 3b f3 8e bc
       -0.9691282 0.37817624 1.144356 -0.017449966
0002e0 3b 51 9f bf a8 ba df be f0 a6 e8 3e 13 24 73 be
       -1.2446665 -0.43697095 0.45439863 -0.2374423
0002f0 3b c3 23 be 8d 82 2f bf 4a ee 4c bf 24 d9 15 bf
       -0.15992443 -0.6855858 -0.800511 -0.58534455
000300 f2 5a b6 3d f7 a7 e2 be 9e eb 74 3e 66 39 9b bd
       0.08904065 -0.44268772 0.23918006 -0.07579307
000310 4e c6 34 3e 62 82 44 be 9b c7 1c be 3b 54 00 be
       0.17653772 -0.19190362 -0.15310518 -0.12532131
000320 52 fb c7 3d 0a 68 3f bf be d7 f4 be e0 bc a8 be
       0.097647324 -0.74768126 -0.47820848 -0.329566
000330 7d 34 9c 3c b1 ce 68 3f dc d0 98 be d2 2f 40 be
       0.019067997 0.90940386 -0.29846847 -0.18768242
000340 15 c8 cc 3e ba a9 48 3f 95 0e e6 be bd 55 16 3f
       0.399964 0.7838398 -0.44933 0.58724576
000350 a6 3b b5 be 44 38 35 bf bc 83 3b 3e c8 5a 06 bf
       -0.3539707 -0.7078898 0.18311971 -0.5248227
000360 80 dc 33 bc 9c 3d 80 bf 22 3d f8 be aa 46 17 3f
       -0.010977864 -1.0018802 -0.4848414 0.590922
000370 38 72 2c 3f 33 b7 f7 3e 7f 18 20 bf fe fe 0c 3f
       0.67361784 0.48381957 -0.6253738 0.5507659
000380 b4 bb d8 bd 86 77 de bb 72 66 b0 be 3e a0 e7 be
       -0.105826765 -0.0067891506 -0.3445316 -0.45239443
000390 eb 47 a7 3e ea 98 1b be 7f fc 9f bf 6c 87 ac bf
       0.32672057 -0.15195051 -1.2498931 -1.3478827
0003a0 bb 45 6c 3e f9 e4 12 3f 25 41 dc be e6 84 b2 3e
       0.23073475 0.57380635 -0.4301845 0.34867018
0003b0 0b a8 fe 3e e2 fe f9 bd e5 c1 b2 3f f8 d5 19 bf
       0.49737582 -0.12206818 1.3965422 -0.60092115
0003c0 b6 68 c9 bd 44 de f6 3e 1d f6 e5 3e ba 6b e4 be
       -0.09834425 0.4821645 0.44914332 -0.4461344
0003d0 e9 d4 c9 3e 7c 17 86 bb e3 55 5b 3f 95 0e 14 bf
       0.3942025 -0.004092155 0.8567793 -0.5783475
0003e0 fe cb 37 bf b7 fa 7b 3e 06 15 43 be aa 6d 8a 3f
       -0.7179564 0.24607359 -0.19050989 1.0814717
0003f0 36 0c e0 be 44 b1 41 bf c5 f9 6e 3f 58 a3 00 3f
       -0.43759316 -0.7566111 0.9334987 0.5024924

weight_hh_l1 f4 [120, 120]
000000 c8 fb 4a be f4 85 15 be 26 88 56 3e dd 57 e5 3d
       -0.1982261 -0.1460188 0.20950374 0.11198399
000010 e5 c8 2c 3f 2a 84 52 bc 45 19 57 3d 98 89 94 3f
       0.6749404 -0.012848893 0.052514333 1.160449
000020 4b cc 86 bf fa d2 10 bf 86 aa ec be c6 ea fd be
       -1.0531095 -0.56571925 -0.4622385 -0.4959318
000030 90 1f 95 3e b2 67 e3 be b1 20 ff 3e cb 3c a4 be
       0.29125643 -0.4441505 0.4982963 -0.3207763
000040 8b 66 dd 3e c4 ac e3 3d c2 96 3d bd d3 bc eb 3e
       0.43242297 0.11116937 -0.046286352 0.460425
000050 bf 0a a3 be 4e 9c 82 bf ad bf 72 3e 4d 6c 24 bf
       -0.31844136 -1.020395 0.23705931 -0.64227754
000060 7d 42 56 3e 6c 87 a8 3d b9 59 07 bf 55 70 40 bf
       0.20923801 0.08228955 -0.5287128 -0.75171405
000070 d9 ee 90 3f 48 6d 77 bd bf e1 b9 3d 7b f4 5a 3e
       1.132289 -0.060406953 0.09076261 0.21382324
000080 4b 08 99 be 9d b0 4e be 32 cb 19 be 6a 40 16 bf
       -0.2988914 -0.2018456 -0.15018919 -0.5869204
000090 55 37 d2 3d 08 d2 ac 3d 10 80 89 3e 6a 7e 99 bc
       0.1026446 0.08438498 0.26855516 -0.018737037
0000a0 41 9d 06 3e aa a3 3d 3e b0 ff f5 be 6e 83 cf be
       0.13145925 0.18519464 -0.48046637 -0.4052996
0000b0 1a 5f 02 bf e2 e7 ea be 2a 5b 28 3e f2 19 b5 3e
       -0.50926363 -0.45880038 0.16441026 0.35371357
0000c0 fa 4a bd bc 7d 6c 71 bf 80 92 15 3e a6 4a 0b bd
       -0.02310704 -0.94306165 0.14606667 -0.034006737
0000d0 c0 93 b5 3d 6b c0 47 bf e2 6d 0b 3f e0 f0 83 bd
       0.08866072 -0.7802798 0.5446454 -0.06442428
0000e0 fb 54 18 bf de e3 af be 40 cf 87 bf 5c 32 ba 3d
       -0.5950467 -0.34353536 -1.0610123 0.090916365
0000f0 c4 46 ab bc b8 76 50 3f 8b 8f 8f be f1 79 10 3f
       -0.020907767 0.8143115 -0.28039202 0.5643607
000100 3f 9a 1f be b5 84 6e 3e 2e 5f 09 3f fe b2 92 3d
       -0.15586184 0.23292811 0.5366086 0.07163046
000110 cf d3 5d 3e aa d9 80 3e 7c 84 13 bf 70 c5 ca be
       0.2166283 0.25166065 -0.5762403 -0.39603758
000120 10 d2 ea 3e 87 fa f7 bd 82 cb 86 3e 16 97 fc 3e
       0.4586339 -0.12108331 0.2632714 0.4933402
000130 cf a7 3d be 8b aa 34 bf 25 a9 fb bd 99 c3 7b bd
       -0.18521045 -0.7057273 -0.12288121 -0.061465833
000140 26 a8 8b 3f 1e fc c0 3e 6d 2e f4 be 4d d5 fa 3e
       1.091069 0.3769235 -0.4769167 0.4899086
000150 92 4c 3e be e9 fb 82 3e 7e 91 c4 be 4e 8a ac bd
       -0.18583897 0.25582817 -0.38392252 -0.08424817
000160 ab 2b 44 3f 95 dd db 3d 0e 29 32 be 59 89 55 3f
       0.7662913 0.10735623 -0.17398474 0.834127
000170 36 cb a1 3f 04 a0 fc 3c 38 1b 14 be 4e 59 f1 3d
       1.264014 0.03083802 -0.14463508 0.11784612
000180 26 5d 95 be e7 e5 2a be 25 3e dc be 24 91 03 bf
       -0.2917263 -0.16689263 -0.43016163 -0.5139334
000190 a7 9f 36 3e 6f 1f 3f bf 9e 9d 9c be 55 a4 84 be
       0.1783434 -0.7465734 -0.30589002 -0.25906625
0001a0 22 b8 ee 3e 66 2b 17 be cd de 84 3f ab de d7 bd
       0.46624857 -0.14762649 1.0380493 -0.105405174
0001b0 89 db 2c bf bf d5 fb 3d 8d 84 e4 3e 1d 4b ee 3d
       -0.67522484 0.12296628 0.44632378 0.116354205
0001c0 71 f2 48 bd 5e db 33 be ae 93 d0 3e 20 fc 9a be
       -0.049059335 -0.1756415 0.4073767 -0.3027048
0001d0 3c 69 d6 be a3 d2 87 bf 3f d6 c2 3e 07 ae 0e 3f
       -0.41877162 -1.0611156 0.38054082 0.55734295
0001e0 80 8f 9c 3e 32 54 3e bf 70 4a 1f bf ae b0 7f 3f
       0.30578232 -0.7434722 -0.6222296 0.99878967
0001f0 b0 f0 10 bf dc 2a 84 3e 9a 5f 67 bf 4a d7 5c bf
       -0.5661726 0.2581395 -0.9038025 -0.86266005
000200 b0 bf ab bf 16 53 db 3e 4c 08 25 be 05 5e 45 bb
       -1.3417873 0.42836827 -0.16116446 -0.0030115854
000210 22 91 d1 3d 5d 9d c9 bd e2 27 14 bd 10 26 45 be
       0.1023276 -0.09844468 -0.036170848 -0.19252801
000220 a6 b5 41 3d 44 61 00 3e f9 0a 94 bf 3c e6 84 3c
       0.047292374 0.12537104 -1.1565849 0.016223066
000230 54 93 be be 3f d8 74 bf 7c 03 33 be da 78 df be
       -0.37221777 -0.95642465 -0.17481798 -0.4364689
000240 05 a4 95 3f 59 8c c8 3e d1 91 94 bf 70 46 fa bc
       1.169068 0.39169577 -1.1607 -0.030551165
000250 c7 ff c9 3e 67 1c 0b 3f 74 22 81 3d b4 ef 54 3f
       0.39452955 0.54340214 0.063053995 0.8317826
000260 3a db 2f 3f a8 4d 16 3f 2c 02 bb 3e f2 18 34 bf
       0.6869389 0.58712244 0.36525095 -0.70350564
000270 f2 df 42 3f d0 bb 7c 3f f3 f1 46 bf 14 9f d2 be
       0.76122963 0.9872408 -0.77712935 -0.41136992
000280 3c f3 9d 3f e8 f3 b9 3b 67 a3 87 bd a9 60 0b be
       1.2339854 0.005674828 -0.066229634 -0.13611092
000290 fb 5f 95 bf af 22 ed 3d 34 a9 36 3f ca 37 ed 3c
       -1.1669916 0.11578881 0.71351933 0.028957266
0002a0 46 2e 2f 3e c1 0f 3d be 2b 7c 8b bf fe 27 0c bf
       0.17107496 -0.18463041 -1.0897268 -0.54748523
0002b0 20 0b 53 3e c9 f1 20 bf b8 17 b8 bc 74 cc 62 3f
       0.20609713 -0.62868935 -0.022472247 0.8859322
0002c0 9b d2 8d 3e 1e e2 96 bf e2 18 18 3f 10 f6 41 bf
       0.27699742 -1.1787755 0.5941297 -0.75766087
0002d0 21 8e 09 bf 7e 26 bd be 2d 57 94 3b c5 18 c9 3f
       -0.53732497 -0.3694343 0.0045269937 1.5710684
0002e0 a3 05 76 be f7 05 82 bf 18 31 4f 3f d0 8d 13 3f
       -0.24025588 -1.015807 0.80934286 0.57638264
0002f0 ce e2 c9 3e dc 43 67 3f de 66 1f bf 14 83 2a be
       0.3943085 0.9033792 -0.6226634 -0.16651565
000300 82 22 0d bf ea 9b b8 be be 1a 60 bd 61 a7 ef be
       -0.5513078 -0.36056453 -0.054713003 -0.46807387
000310 70 b9 37 bd f4 13 89 be 67 db 87 3e 5a 8f 2d be
       -0.04485458 -0.26773036 0.26534578 -0.16949216
000320 aa 3b 42 3f 68 73 0a bf 08 36 ca bf 7b 9f 12 3f
       0.7587229 -0.54082346 -1.5797739 0.572746
000330 ec ef e0 be cb 5a 34 bf 70 ef 45 3f e4 53 93 be
       -0.43933046 -0.7045104 0.7731848 -0.2877494
000340 64 4d 24 3e 04 98 31 3e ba 00 31 be 2e 18 30 3f
       0.16045147 0.17343146 -0.17285433 0.68786895
000350 83 15 d2 be e1 e5 81 3f 92 30 37 3e 41 28 11 be
       -0.41032037 1.0148278 0.17889622 -0.14175512
000360 90 7c 19 3e cc 5b 55 be e3 dd 3c 3e cc 7e 4f bf
       0.14988923 -0.20835799 0.18444018 -0.8105285
000370 53 2f a3 3f 46 41 2b 3f 8b 4c 0b 3f ea 87 de 3d
       1.2748817 0.66896474 0.5441367 0.10865767
000380 d0 fa 66 3e 8e b5 4b be 15 24 4c bf e1 3a a9 be
       0.22556615 -0.19893476 -0.79742557 -0.33052734
000390 ed ec 32 bf 26 ac d4 bd 8c 86 98 be 64 26 03 3f
       -0.6989277 -0.10384397 -0.2979015 0.51230454
0003a0 7f 84 b6 bd 21 0b a6 3d f1 06 d3 bd d0 f6 59 bf
       -0.089119904 0.081075914 -0.10304058 -0.8514223
0003b0 b7 b0 26 bf 50 0b 42 3e 90 bd 45 3f cf 9a 8c 3e
       -0.65113395 0.18949628 0.77242374 0.2746186
0003c0 b7 ac f9 3e 0f f4 70 3d 91 3a f6 3e 0f 60 75 3e
       0.48764583 0.058826502 0.48091558 0.23962425
0003d0 ac 80 bc bd 0e 9b 31 bf 1e 55 12 bf 56 e7 60 be
       -0.0920423 -0.6937722 -0.5716113 -0.21963248
0003e0 70 bf 90 bd c2 c4 47 be 20 94 c1 3e 3c 6e 76 3e
       -0.07067764 -0.19508651 0.37808323 0.24065489
0003f0 9b 4d b7 3e 0d 4e ee bd f6 f8 10 bf c3 7d d5 3f
       0.35801396 -0.11635981 -0.56629884 1.6679004

bias_ih_l1 f4 [120]
000000 7a 5e 75 bf 4e c0 f0 3e 98 7d 22 3e 11 41 70 bf
       -0.95847285 0.47021717 0.15868223 -0.93849283
000010 dc 60 25 3e 66 c4 2f 3d 3e 68 d0 3e da 63 8b 3e
       0.1615023 0.04291191 0.4070453 0.27224618
000020 e9 ec 27 3f dd dd 2c 3e 25 3f 21 3e bf 2a 8b be
       0.6559587 0.16881509 0.15746744 -0.2718105
000030 1b 35 cb bd 65 08 84 be 3c 3a 1a bf 99 7c 5b be
       -0.099222384 -0.25787655 -0.6024511 -0.21434249
000040 ec 0e ed bd 26 65 de 3d b5 26 27 3f 70 37 9e 3e
       -0.11575112 0.10859136 0.6529344 0.3090167
000050 c0 0b 20 3e 9c ab 46 3f 12 2b ad 3e 6c e0 f7 3c
       0.15629482 0.77605605 0.33821923 0.03025838
000060 96 ef 4c be c7 20 cd be e8 ab 42 3f dd ad 3c 3f
       -0.2001327 -0.4006407 0.7604356 0.73702794
000070 c9 6c b8 be f2 3a c1 3e da d6 cf 3e 6b ae 59 bd
       -0.36020496 0.37740284 0.40593606 -0.053144854
000080 fb 52 24 bf cb 2b 7d be 10 df 03 3e 14 67 3b 3f
       -0.6418912 -0.24723737 0.1287806 0.7320416
000090 e0 23 37 bf 3b 42 05 bf e7 6b 61 be 07 d4 d3 3d
       -0.71539116 -0.52054185 -0.22013818 0.103431754
0000a0 d2 dc 0c bf 1c b8 5c bd 99 06 3a bf 93 48 c7 bc
       -0.55024445 -0.053886518 -0.7266632 -0.024326598
0000b0 83 1e a4 3e ff de a3 3e 75 b8 16 bf fc bf f6 3d
       0.3205453 0.3200607 -0.5887521 0.12048337
0000c0 c8 33 e6 be 36 8b d0 3d c9 43 55 3f 78 32 00 3f
       -0.4496138 0.101828024 0.83306557 0.5007701
0000d0 4a 2a 0d 3c 33 7b 38 3e dd da 43 3e be f6 8c bf
       0.0086160395 0.18015747 0.19126458 -1.10128
0000e0 31 64 8d be 77 de 78 3f ac c1 d9 3e d7 55 1e bd
       -0.27615502 0.97214454 0.42530572 -0.038656082
0000f0 8a 84 69 3e 16 ef 1e 3f 2e e7 9e 3d a6 a4 11 be
       0.22804466 0.62083566 0.07758938 -0.14222965
000100 31 bc 68 3e c8 d5 c1 3e b7 43 e0 be e4 a4 59 3f
       0.2272804 0.37858415 -0.43801662 0.8501723
000110 9f 0d 6f be 3c a0 59 bf 94 9f 31 be c6 66 4d 3f
       -0.2334504 -0.85010123 -0.1734603 0.80234945
000120 20 6b 75 3e 4c 2c a7 3e ed 0d a7 3e d8 3c 25 3f
       0.23966646 0.32650983 0.32627812 0.64545965
000130 e6 17 c0 bd a6 6a b6 be 18 96 44 bf 5f 3e 3a 3e
       -0.09379558 -0.3562824 -0.76791525 0.18187855
000140 2c 12 35 bd 2b a6 0e bd 11 bd 47 3e 9b bd 24 bf
       -0.044206783 -0.03482644 0.19505717 -0.64351815
000150 7b 1b bd 3e 46 dc 6d bd cf 34 96 3e d1 92 72 3e
       0.36935028 -0.058071397 0.29337165 0.23688819
000160 86 ca dc be 37 8c 4e 3d f6 4d 74 be 9d 2c 20 be
       -0.43123263 0.050426688 -0.23857865 -0.15642019
000170 b2 ed b1 bd 2d f4 e9 3e d1 4d 43 3e 8c fa d9 bc
       -0.08687915 0.45694104 0.19072653 -0.026608728
000180 d6 85 13 3d 66 43 3f 3f f0 66 e4 be 04 88 c0 bd
       0.036016308 0.74712217 -0.44609785 -0.09400943
000190 32 53 0d bf 9f bf c2 3e 9e bd 03 bf d4 3e c0 bd
       -0.5520507 0.3803682 -0.5146121 -0.093869835
0001a0 4c ef 0d 3f 9e df b7 3e 60 13 12 3e cd 9b bc 3e
       0.55443263 0.35912794 0.14265203 0.36837617
0001b0 ec 6e 22 3f 79 45 7e bf ef 94 6a 3c d2 37 3c be
       0.63450503 -0.99324757 0.014317735 -0.18380669
0001c0 26 d0 6e 3f 28 75 95 3f 54 61 d5 be 6b 6b ac bd
       0.9328636 1.1676378 -0.41675818 -0.08418926
0001d0 da 69 5d 3c 85 bc 3f be 0e 17 4c 3f 02 d5 55 bf
       0.0135140065 -0.18724258 0.7972268 -0.8352815

bias_hh_l1 f4 [120]
000000 ed 4c 75 bf 2e 90 e0 3e 66 ee d7 3d 73 1a 83 bf
       -0.95820504 0.4386 0.10543518 -1.0242447
000010 b4 da 0a 3e 11 dd b8 3d 42 95 d5 3e ed 74 5d 3e
       0.13559991 0.0902654 0.41715437 0.21626635
000020 01 2a 27 3f d3 c1 38 3e 1d bc 08 3e 6f 67 76 be
       0.6529847 0.18042688 0.1335301 -0.24062894
000030 8d bf 1a be a0 22 9e be 0c 67 1f bf 0a ce eb bd
       -0.15112133 -0.30885792 -0.6226661 -0.11513908
000040 a4 1d 8c bc d7 15 fe 3d 29 0b 21 3f 4a 07 b9 3e
       -0.017103978 0.12406509 0.62907654 0.36138374
000050 4e 41 46 3e df 7a 41 3f 49 bb dd 3e 04 3c 68 3d
       0.1936085 0.7557811 0.4330695 0.05669786
000060 ca 73 68 be c5 5f b4 be a4 1a 3b 3f cd 6d 30 3f
       -0.2270042 -0.35229316 0.73087525 0.6891754
000070 57 42 bf be e8 f7 95 3e 95 d0 08 3f 83 71 b8 bc
       -0.373553 0.292907 0.5344327 -0.022515064
000080 a1 ac 1d bf f8 17 c0 be 6e f0 fb bc b6 ce 27 3f
       -0.61591536 -0.37518287 -0.030754294 0.6554979
000090 40 10 2a bf 41 42 14 bf 63 2e 91 be 2e c3 4b 3e
       -0.66431046 -0.57913595 -0.28355703 0.19898674
0000a0 72 9b fe be 5f e4 72 bd 69 44 2b bf 0e 90 fa 3d
       -0.4972797 -0.059299823 -0.6690126 0.122345075
0000b0 6d 0d b8 3e 45 45 9c 3e 31 97 f0 be 62 ad 19 3e
       0.35947743 0.30521598 -0.4699035 0.15007547
0000c0 5c bd e6 be fa 9e 07 3e 1a 92 6f 3f b9 15 bc 3e
       -0.45066345 0.13244238 0.9358231 0.36735323
0000d0 1c 41 8a 3d cd fd a3 3d 6b b2 3e 3e ad a9 8a bf
       0.067507 0.08007393 0.18622749 -1.0833031
0000e0 6f 99 a0 be 57 ed 76 3f ac ff ed 3e d7 74 10 be
       -0.3136706 0.964559 0.46484125 -0.14107071
0000f0 3c bf 69 3e 98 2a 1a 3f 86 b2 ca 3d c8 40 c8 bd
       0.22826856 0.6022124 0.09897332 -0.09777981
000100 d2 f3 9f 3e 76 34 c2 3e 92 17 d8 be c4 e8 43 3f
       0.31240708 0.3793065 -0.42205483 0.7652705
000110 b7 d8 84 be 60 65 4f bf fd d0 af be ab 87 60 3f
       -0.2594659 -0.8101406 -0.34339133 0.8770701
000120 ec d9 23 3e a9 ac 76 3e 61 9b cb 3e f2 25 2c 3f
       0.160011 0.24089302 0.39766982 0.672454
000130 60 53 ae bd 3e 73 be be 4a d4 51 bf 6c 0c 88 3e
       -0.08511996 -0.37197298 -0.8196455 0.26571977
000140 5a be c7 bd 14 0a 94 3d b5 a5 10 3e c5 87 3b bf
       -0.097531036 0.07228485 0.14125712 -0.7325404
000150 93 d1 b0 3e 43 97 c7 3d 01 47 83 3e 7a 01 a9 3e
       0.34534892 0.09745648 0.2564011 0.3300894
000160 40 9d bb be 8f c3 af bc ee a8 80 be 8f 3d 2e be
       -0.3664341 -0.021455554 -0.25128883 -0.1701567
000170 91 f6 39 be 7b 14 f2 3e d8 41 94 3e 08 b8 9c bc
       -0.18160464 0.4728125 0.28956485 -0.019130722
000180 5a 18 97 bd a6 bd 2b 3f b6 d7 b7 be c7 24 21 3c
       -0.073776916 0.67086256 -0.35906762 0.009835429
000190 f8 66 e5 be 91 8d 0e 3f c2 ef fe be 0b a4 69 3d
       -0.4480512 0.55684763 -0.49792296 0.05704121
0001a0 cc 3b 16 3f 6e f7 8a 3e bc 5f ed 3c e1 02 c1 3e
       0.5868499 0.271419 0.028976314 0.3769751
0001b0 1e 89 0c 3f f0 78 78 bf ca 3a b2 3c bc f1 7d be
       0.54896724 -0.97059536 0.021756548 -0.24799246
0001c0 67 d8 59 3f 4e 30 91 3f 21 e5 02 bf 1a 2f b4 bd
       0.8509583 1.1342866 -0.5113087 -0.087980464
0001d0 ea 24 fd bc ed 19 11 be f6 06 52 3f 62 6c 57 bf
       -0.030901391 -0.14170046 0.8204187 -0.84149754

weight_ih_l2 f4 [120, 120]
000000 09 10 32 3e 06 2a 91 3f da 13 be 3e 0b 7e 51 bf
       0.1738893 1.134095 0.3712452 -0.8183295
000010 c5 75 3f be 78 bf 0e be 12 50 a2 3e a9 4c 89 3e
       -0.1869727 -0.13940227 0.31701714 0.268163
000020 d1 80 8d be 84 1f a2 3e fc e1 b5 be 8d 15 34 bf
       -0.27637342 0.3166467 -0.35523975 -0.70345384
000030 33 63 11 3f a6 81 bd 3e b8 36 50 bf f0 8b a1 3e
       0.5679199 0.37012976 -0.81333494 0.31552076
000040 90 6c 43 bf 0c 09 87 bf 3c 84 3f bf f0 0d 93 3e
       -0.7633753 -1.0549636 -0.7481115 0.2872157
000050 92 00 91 3f 84 37 aa be 0b 41 fd 3e c7 cd 97 be
       1.1328299 -0.3324548 0.49463686 -0.29649183
000060 26 2f 90 3e c3 c1 0f 3f 1a b8 53 bf 72 af be 3e
       0.2816097 0.5615503 -0.8270279 0.3724323
000070 be c8 49 3e 97 ac 66 3e 44 0a 99 be a8 5b 2e bf
       0.19705483 0.22526775 -0.29890645 -0.68108606
000080 3e 7c d1 be c0 7f 4b bf 8c f7 0b 3f fb b2 0a bf
       -0.40915102 -0.79491806 0.546746 -0.5417935
000090 d3 7b 2d 3e 5a 04 ff be 23 f1 19 be 34 5e 42 3e
       0.16941766 -0.49808007 -0.15033393 0.18981248
0000a0 c9 f0 01 3f 9f 91 56 bd 91 e6 0d 3c 9b f4 9d 3e
       0.50758034 -0.05238497 0.008660928 0.30850682
0000b0 a3 3f cc bd b2 d3 43 bb 89 c4 00 3e f7 9f 55 3e
       -0.09973075 -0.002988082 0.12574972 0.20861803
0000c0 09 ea c0 bf 53 80 6a 3f 90 31 bc 3e 87 6a c3 3f
       -1.5071422 0.9160206 0.36756563 1.5266885
0000d0 07 4b 26 3e 37 c5 d6 3c da b9 b4 3d 2f 8a f1 be
       0.16239558 0.026217086 0.08824511 -0.47175738
0000e0 35 54 b4 be 37 eb 8c be 9d 04 25 3e 5d fe e8 be
       -0.35220495 -0.27523205 0.16115041 -0.45506564
0000f0 58 2a 92 be 19 db e6 3b d5 0e 37 3e 12 00 41 3e
       -0.2854793 0.0070451614 0.17876752 0.18847683
000100 b8 1f 87 3e 8e 5c 26 3f d1 03 ff 3d ee df f0 be
       0.26391387 0.6498498 0.124519 -0.47045845
000110 0e 2e d6 3e f1 0d ca bd 12 cb bf 3e 3d 4c f5 3e
       0.41832012 -0.0986594 0.37459618 0.47909728
000120 a4 9f 96 be cd fe 58 bf 49 6a 01 3f c9 a8 6c 3d
       -0.2941867 -0.84763795 0.50552803 0.057778154
000130 ab 65 90 bd 08 e4 a3 3e fc 9d b9 be 15 21 54 3e
       -0.070506416 0.32009912 -0.36253345 0.20715745
000140 7a db 39 3e a1 a4 d6 be 4d 63 92 3e 09 b5 c4 be
       0.1815013 -0.41922477 0.28591385 -0.3841937
000150 57 a9 83 bc 0a 1a d6 3d d6 3f f6 3d 6d d7 9f 3d
       -0.016071958 0.10454185 0.120238945 0.07804761
000160 26 11 32 bf 95 c9 8a be 1f 50 ac 3e 60 71 09 be
       -0.69557416 -0.2710692 0.33654878 -0.13422155
000170 31 d1 84 be a5 7e 8b 3f 8c 82 b3 bd fb cb 4b be
       -0.2594085 1.0898024 -0.08765134 -0.19902031
000180 29 9b 2d bf 2b e6 18 3f 07 6c 11 be e4 42 60 be
       -0.6781488 0.5972621 -0.14201365 -0.21900517
000190 0e 93 bc bf 8c a1 69 3f 5f 48 b6 bd a2 ee df bd
       -1.4732378 0.91262126 -0.089005224 -0.109341875
0001a0 4c ea 3b 3f a7 77 a6 bf f9 15 0d 3e 62 11 b7 bc
       0.73404384 -1.3005265 0.13777913 -0.022347156
0001b0 12 6e 4a 3e 71 8a dd 3e 2d 94 46 3f 5c 92 0b 3f
       0.19768551 0.43269685 0.7756985 0.545202
0001c0 59 a0 36 3f fd 0b 46 3f 4d 65 4c be 29 09 77 3e
       0.7133842 0.7736204 -0.19960518 0.24124588
0001d0 9f d6 54 3e 60 6b 9e be 28 c3 b6 3e f3 2e 1f be
       0.20784996 -0.30941296 0.35695767 -0.15545253
0001e0 76 62 e8 3e ac 13 cb 3d 58 5e 3d 3f 23 64 1e 3f
       0.4538762 0.099158615 0.7397208 0.61871547
0001f0 f8 9e a3 be 00 9d 8e 3d 0c 6e 67 be b5 34 8f be
       -0.3195722 0.06963539 -0.22600573 -0.279699
000200 68 75 fe be c3 36 1d 3f d0 01 45 3e 47 e3 7f 3f
       -0.4969895 0.61411685 0.19238973 0.9995617
000210 66 23 59 3e 0a 05 a1 3e 97 f8 23 bf 22 c6 3f bd
       0.2120491 0.31449157 -0.64051193 -0.046819814
000220 a6 f2 f9 be 77 72 00 be 98 22 83 be ec 98 de be
       -0.4881794 -0.12543665 -0.2561233 -0.43476045
000230 5b df 47 3f 69 f8 6c 3d 20 c2 bb bd 1f b7 70 3f
       0.7807519 0.05785409 -0.09167886 0.9402942
000240 c1 b0 d7 3e 8e 60 33 3e d5 07 fb be 7c e6 ff be
       0.4212704 0.17517301 -0.49029413 -0.49980533
000250 ea 8b 25 be eb 5e 3a 3d 32 9d 88 bf e7 ae 9c 3e
       -0.16166654 0.045500677 -1.0672972 0.3060219
000260 55 fb 28 be 05 0f 4c bc 6e ac 3d 3e 57 7d 5c be
       -0.16502126 -0.012454753 0.18522808 -0.21532188
000270 36 d0 38 3f 9f ba 81 3c a5 0e 80 be 7f c8 5a 3f
       0.72192705 0.015836058 -0.25011173 0.8546218
000280 c6 bb d4 3e 1e 89 54 bf 0b 0f a8 3e 29 c8 17 be
       0.4154951 -0.83021724 0.32823977 -0.14822449
000290 e1 27 23 3e 14 be db 3d e2 a4 36 3f 67 61 bd bc
       0.15933181 0.10729614 0.7134534 -0.023117734
0002a0 88 05 63 bf fb f2 3d 3e 44 94 37 bf 1e 25 39 3f
       -0.88680315 0.18549721 -0.7171061 0.7232226
0002b0 b2 53 4d 3f 1c 2f b0 3e 38 07 00 bf 05 fb 33 3f
       0.80205834 0.34410942 -0.50011015 0.703049
0002c0 5a 89 90 3f d6 b1 9c bc 80 04 1d 3e 4b b6 7c bf
       1.1291916 -0.019127768 0.15333748 -0.98715657
0002d0 43 bb 69 3d c7 7e 38 bd 28 7a 12 3f 15 5b 24 3f
       0.057063352 -0.04504278 0.57217646 0.6420148
0002e0 b6 60 2d bf d4 de 5e b8 11 44 9f 3e 48 2e 45 be
       -0.67725694 -5.313645e-05 0.31106618 -0.19255936
0002f0 fd c5 cd 3e 2e 4f 69 3f fd 12 ac be b6 3a 1a 3f
       0.40190116 0.91136444 -0.33608237 0.60245836
000300 d9 75 4c bf 9c 4d f3 3b 84 89 cd be 71 1c 28 3f
       -0.7986732 0.0074250232 -0.4014398 0.656684
000310 94 c1 f1 be 66 a6 6d bf d4 1b 37 3f 2e 31 9a 3e
       -0.47218 -0.9283203 0.7152684 0.30115646
000320 03 7c 6c bd f2 37 fd bd 2e e3 a7 3e 60 0e 58 3f
       -0.057735454 -0.12364186 0.32790512 0.84396935
000330 14 6b bb bf 70 5a b4 3e c2 5e 8a 3e d1 72 d7 be
       -1.4642053 0.35225248 0.2702542 -0.42079785
000340 f5 48 0f bf f9 e6 30 bd a3 57 9e be 1a c0 99 bb
       -0.559707 -0.043189023 -0.30926237 -0.0046920897
000350 1c 94 ca be f5 16 16 be 43 c5 0b 3f cf e1 e7 3d
       -0.39566123 -0.14657195 0.5459787 0.113223664
000360 5c f6 81 3e 0a 08 89 3f 70 82 05 3e 34 53 cd 3e
       0.2538327 1.0705578 0.13038039 0.4010254
000370 5e af 12 3f 33 80 2d 3f d8 66 e9 bd 9b be 7b be
       0.5729884 0.6777374 -0.11396569 -0.24584429
000380 37 a4 55 bd 80 4a 33 3e 68 bf 37 bf 99 15 3b bd
       -0.05215856 0.17508888 -0.7177644 -0.045674894
000390 c1 bb 0c bf 74 36 e3 3e 32 06 04 bd ba 75 81 3e
       -0.5497399 0.44377482 -0.03223247 0.2528513
0003a0 2d 77 8e 3e 2a 24 2a 3f dd cd 60 3e fc 3e a6 be
       0.278253 0.6646143 0.2195353 -0.32469928
0003b0 f7 3b 4c be a6 12 06 3f fa 1f a5 3e 0b f1 a2 be
       -0.1994475 0.52372205 0.3225096 -0.31824526
0003c0 fb 0e 69 3d 19 d1 0b 3f e4 ee 0b 3c 4a 24 50 bd
       0.056899052 0.5461593 0.008540843 -0.050815858
0003d0 dc d4 01 3e 9e fe 12 3e 83 49 36 be fc b6 31 3e
       0.12678856 0.14354941 -0.1780148 0.17354959
0003e0 07 67 71 bf 2b 24 86 be 85 bc 74 3e 78 28 09 3e
       -0.9429783 -0.2619947 0.2390004 0.13394344
0003f0 d7 11 82 bf 6d ac a5 3e 0f ec 95 3e 44 a5 5b 3c
       -1.0161694 0.32358113 0.2928166 0.013406102
