models/RNN_PAST8_FUTURE3_V2.pt (torch, 188764 bytes, 8 tensors)

weight_ih_l0 f4 [150, 2]
000000 5a 5b 4e 3d e7 40 93 3d 70 94 11 be 93 8c 03 3e
       0.05038009 0.071901135 -0.1421678 0.12846594
000010 fa 03 6b 3d d1 44 9b 3d e4 da e0 3d 46 a4 c0 bd
       0.05737684 0.07581485 0.1097925 -0.09406333
000020 55 2b 95 be ee 1b ce bd 54 d4 54 bd 8a ca 68 3e
       -0.29134622 -0.10063921 -0.051960304 0.22733513
000030 ff 18 ac 3c 2e 7e 06 be cd da 9a 3d 92 1d ee 3d
       0.021008013 -0.13134071 0.07561264 0.11626734
000040 e0 f1 67 3d df 93 91 bc d7 47 d9 3d 13 10 fe 3c
       0.056627154 -0.017770706 0.106094055 0.031013524
000050 8f 04 d5 3e 69 ab d1 bd 25 99 39 bd 73 f6 a5 3e
       0.4160504 -0.10237772 -0.045312066 0.32414588
000060 46 95 79 3e da 54 5f 3e 65 90 3d 3e 9e 98 40 bd
       0.2437335 0.21809712 0.18512113 -0.047020547
000070 75 8b 8d 3d 48 fb 86 be 8d a4 8e bd 55 c4 bd bd
       0.06911365 -0.26363587 -0.06964979 -0.09265963
000080 7d 76 92 3c 6a 64 13 3d a2 b5 8a bf 41 56 aa 3c
       0.017878765 0.035984434 -1.083668 0.020793082
000090 23 6a 7d bd 33 93 23 3e 8f 50 99 bd ce b7 98 3e
       -0.061868798 0.15974121 -0.074860685 0.29827732
0000a0 9c 8e 31 3e d0 5f 07 3e d6 53 ee 3d bf bf d2 bd
       0.17339557 0.13220143 0.11637084 -0.10290479
0000b0 2c f2 39 3e b8 b0 53 3e 53 3b a9 3d 69 c1 05 bd
       0.18158787 0.20672882 0.08263268 -0.032655153
0000c0 dc b8 89 bd b7 9f 9c 3e fd 7a ad 3d 6b e9 ec 3d
       -0.06724712 0.30590603 0.08470724 0.115679584
0000d0 14 67 6d be b5 52 94 3c 25 c7 63 3d c1 61 a9 be
       -0.23183852 0.018105844 0.05560984 -0.33082393
0000e0 2e ff 7d 3d 64 a8 85 3d 27 75 1b be 4a ca 60 3d
       0.062010936 0.065262586 -0.15181409 0.054880418
0000f0 10 4d 65 3d f8 51 a8 3d 35 c1 3a be c0 68 29 3e
       0.055981696 0.08218759 -0.18237765 0.16543865
000100 30 2b 65 be 42 f1 50 3e 55 9a a2 bd 4b 8a 4f bd
       -0.22379756 0.20404533 -0.07939593 -0.050668996
000110 95 a0 e7 3d ae 60 d7 bd 9a f2 fd bd 04 14 b2 3a
       0.113099255 -0.10516487 -0.12399788 0.0013586287
000120 63 ac 96 3d f5 16 90 3d 4f 2e db bd 2f 20 99 3d
       0.07357099 0.07035629 -0.10702192 0.07476842
000130 ad ce a6 be b0 0c 84 3d 7b 65 86 3d 66 d8 a3 be
       -0.32579556 0.064477324 0.065623246 -0.32001036
000140 5f 1d 4d 3e 15 09 6b 3d 42 93 88 bd 35 80 8d 3e
       0.20030735 0.05738171 -0.06668712 0.27636877
000150 fa a0 8f 3d 4a e0 86 be 37 d5 85 3d ee 94 62 bd
       0.07013126 -0.26342994 0.06534808 -0.05531781
000160 40 86 85 3d 23 3d 1f 3d fa 02 35 be c5 3e 21 3e
       0.06519747 0.038876664 -0.17676917 0.15746601
000170 67 e9 44 bd 15 ea 19 3f 1f f0 be bc 7f 8f 4b 3e
       -0.048074152 0.60122806 -0.023307858 0.19878958
000180 7f d5 80 bd 7e 1d e3 bd 9c ac 85 3d cb b2 1b 3d
       -0.06290721 -0.110896096 0.06527063 0.038012307
000190 27 e3 8f 3f 4c a8 3c 3c a0 85 81 bf 2b cf f0 bd
       1.1241196 0.0115147345 -1.0118904 -0.11758264
0001a0 43 8f ad 3d b0 fc a3 3d 56 30 7d bd 68 d8 58 3e
       0.08474591 0.08007181 -0.061813675 0.21176302
0001b0 5c bf 25 be f0 96 25 be cc 2f 89 bd e7 1a be 3d
       -0.16186279 -0.1617086 -0.0669857 0.09282475
0001c0 a3 a3 a5 3f 3f c8 8e 3d 2b 7c 44 be 77 c9 aa bc
       1.2940563 0.06971788 -0.19187991 -0.020848019
0001d0 63 a0 72 3e 75 8d 99 3d ca 8a e8 3e 1d 63 6a 3d
       0.23693995 0.07497684 0.45418388 0.057223428
0001e0 c8 05 a7 3e 49 24 ec bd 5a bf a0 bd 3c 19 06 be
       0.32621598 -0.11530358 -0.078489974 -0.13095564
0001f0 76 3e 84 bd 94 48 63 3e a7 b1 a0 3d 8e ec b4 be
       -0.06457226 0.22195655 0.078463845 -0.35336727
000200 70 1d 9e bd 7f 11 a3 3d 9d 27 61 3e ae 08 18 bd
       -0.077204585 0.079623215 0.21987768 -0.037117653
000210 f0 7e 86 bd 93 a5 5e 3e e0 54 9d 3d 12 56 95 3e
       -0.0656718 0.21742849 0.07682204 0.2916723
000220 6a 94 85 3d d8 09 b3 3d 1c 15 83 bd 7d 95 65 3e
       0.06522448 0.08742112 -0.06400511 0.22420307
000230 8b 85 51 3e 43 dd 9f 3e 2d 72 ca 3d 6c 91 45 3e
       0.20461099 0.31223497 0.098850586 0.19293755
000240 1d 0f a0 3e ac 6f c2 bd fe 74 d2 bb 1f 18 57 3f
       0.3126153 -0.09493956 -0.006422638 0.8402118
000250 07 71 19 3e c5 19 0c be 23 da 48 be ef 26 bf bd
       0.14984523 -0.13681705 -0.19614463 -0.09333598
000260 06 0d 01 3d 69 75 c2 be 10 e6 ed bd ab 43 bb 3d
       0.03150656 -0.37980202 -0.116161466 0.09143766
000270 3e 06 4a bc 3b cb d3 3c c2 c3 02 be dc fe 01 3e
       -0.01233059 0.025853744 -0.12769988 0.12694877
000280 8f c4 a1 bd b1 bd 43 3e da dc 2a 3e 76 6e dc 3d
       -0.07898819 0.1911533 0.1668581 0.10763256
000290 21 94 7b 3e f7 af 3b 3d f4 91 a3 bd 08 3f 77 3e
       0.24568225 0.04582211 -0.07986823 0.24145138
0002a0 b8 aa b0 bd ac 1b b9 3e f9 83 82 3d 80 44 68 be
       -0.08626312 0.36153924 0.06372828 -0.2268238
0002b0 9b 4f 66 be e0 0c b8 bd 1b 6a 89 3e 4a f9 ac 3d
       -0.22491305 -0.08986831 0.26838765 0.084459856
0002c0 18 b1 49 3d 51 8a 1c be d9 9c 61 bf 12 da 88 bd
       0.049241155 -0.15287139 -0.88129956 -0.066822186
0002d0 17 a7 5b 3e cf 7b 17 bd 21 48 52 3e 09 b4 a8 3d
       0.21450458 -0.036983307 0.20535327 0.08237464
0002e0 68 42 0d be d4 f2 fc 3d 36 3a 7b 3d dd e4 71 be
       -0.13794863 0.12351003 0.06133481 -0.2362246
0002f0 8a ef 33 3e c7 3c ad 3a 9f 57 50 bf 2b b8 89 bd
       0.17571846 0.0013216966 -0.813837 -0.067245804
000300 c3 07 fc bb 2d 63 27 3e 65 f7 65 bd 30 ac 23 3f
       -0.007691355 0.16346426 -0.056144137 0.6393461
000310 ac 80 97 3d cf 9d 6c be 1a b5 30 3c 0e 33 21 bf
       0.07397589 -0.23107074 0.0107853655 -0.6296853
000320 8f 7b 7a 3e c9 b6 00 bd f0 a4 91 3f dc 2d 04 3e
       0.24461196 -0.031424318 1.137846 0.12908119
000330 46 5c 89 bd 59 7d 89 bd 2c be 92 bd d0 aa 91 3e
       -0.06707053 -0.06713361 -0.07165179 0.28450632
000340 e8 2f 46 be 25 cd 1d 3d 1e 94 d3 3d 85 fc ad bc
       -0.19354212 0.03852572 0.103309855 -0.021238575
000350 17 5e 88 3d a5 ef 25 3e 4b 71 42 3d a9 f6 14 be
       0.06658571 0.16204698 0.047471326 -0.14547218
000360 d5 ae 8f bd 7a 5d 8d bd 4a e2 40 3d b0 89 88 3d
       -0.070157684 -0.06902595 0.047090806 0.06666887
000370 0d 48 7b 3d 57 72 07 3e 56 a3 20 be 5b 6a 91 bd
       0.06134801 0.13227211 -0.15687308 -0.07100364
000380 ee 24 91 3d 86 25 a2 bc e8 59 e5 3d d6 1d bf bd
       0.07087122 -0.019793283 0.11198789 -0.09331863
000390 82 73 31 3e 51 90 3d bd 16 f5 8f bd fc 8f 6f 3e
       0.17329219 -0.04628021 -0.07029168 0.2339477
0003a0 29 7b 47 be 2b 3d cc 3d e9 59 8a 3e 47 55 13 3e
       -0.19480576 0.09972604 0.2702172 0.14388
0003b0 8d 90 92 bf 32 61 37 3c 23 a9 3d 3d cb 50 b4 3d
       -1.1450363 0.011192607 0.04630388 0.088044725
0003c0 9d 53 7b 3e 8d 44 08 bd 99 fb 40 bd 5f 27 48 be
       0.24543615 -0.0332685 -0.047114942 -0.19546269
0003d0 b7 2b 8f 3d 13 b6 af bd d0 18 0f 3e f9 e8 19 be
       0.0699076 -0.0857965 0.13974309 -0.15030278
0003e0 22 7f 15 be e6 e9 7c bc 1f cf 9a bd 4a 61 92 3d
       -0.14599279 -0.015436625 -0.075590365 0.07147463
0003f0 4d cf 32 3c b2 04 f4 3d b1 61 2c 3e fb aa 94 bd
       0.010913682 0.11914958 0.16834141 -0.072591744

weight_hh_l0 f4 [150, 150]
000000 96 5a 64 3e a3 54 bf bd b9 61 ae 3e c7 14 4c bb
       0.22300181 -0.09342315 0.3405893 -0.0031140314
000010 f7 f1 3d bd d8 58 55 3e e1 13 4e be 01 cf 63 3c
       -0.046373334 0.20834672 -0.2012477 0.013904334
000020 23 5b 27 bd c5 bf 61 3e 02 9a 79 bd 7b 4a 6c 3c
       -0.0408584 0.2204581 -0.06093789 0.014422054
000030 3a cd 98 bd 7a 61 9f 3c 85 bf db 3d d3 7f 1a be
       -0.07461019 0.01945566 0.10729889 -0.15087824
000040 29 e3 5c 3e f8 2a 52 3e da d0 fc 3b 7e a0 8a 3c
       0.2157103 0.20524204 0.0077153267 0.016922232
000050 0c 4b 1f 3d 7c f4 d7 3d 85 0e 16 3d 98 cf 90 bd
       0.03888993 0.105446786 0.03663494 -0.07070845
000060 d6 a9 64 bd da 98 06 3d 57 8a b7 3d cb 9a fd 3c
       -0.05582603 0.032860614 0.08961933 0.0309576
000070 35 64 d4 3d 61 20 85 bc b2 5e fb 3b 1e 8e d6 bd
       0.103706755 -0.016250791 0.0076712007 -0.104763255
000080 e8 8c 2e 3d ad 84 f6 bd f2 17 02 3e 08 fc 68 3d
       0.042614847 -0.12037025 0.12704447 0.05688098
000090 7f 02 fb 3d ba 8e 9a bc a6 38 e6 3b 30 80 a3 3d
       0.122563355 -0.018866885 0.007025796 0.07983434
0000a0 c6 82 c2 3d 0e 20 d0 bd 15 0c 0d 3e b6 5c 27 3e
       0.09497599 -0.10162364 0.1377414 0.1634396
0000b0 fd ba 4d 3e 74 1c 2e bd 10 80 e8 bd 17 f0 5b 3d
       0.20090862 -0.042507604 -0.11352551 0.053695764
0000c0 b6 b7 8f bd d0 d1 6f 3d 9e ed 05 be 22 dc 43 3e
       -0.07017462 0.058549702 -0.13078925 0.19126943
0000d0 34 97 d5 bc b4 9c 22 be 97 31 f6 bd 36 94 a8 3c
       -0.026073076 -0.1588009 -0.12021177 0.020578485
0000e0 6d 8b 1e be 6f 07 aa bd 0a af e5 3c 90 90 8d bc
       -0.15482874 -0.08302199 0.028037567 -0.017280847
0000f0 57 5c ca bd 60 d7 96 bd fb d6 87 bb b5 ce 89 3d
       -0.09880894 -0.07365298 -0.0041455007 0.06728879
000100 a7 3f ed bd 69 a9 03 3e 30 be 7b bc c0 93 eb 3d
       -0.11584406 0.12857594 -0.015365168 0.115027905
000110 eb 3e 65 3e 56 98 1c be 53 11 0b 3d 37 f1 8c 3d
       0.22387283 -0.15292487 0.03395207 0.068819456
000120 01 46 a4 bd 30 eb a2 3d 00 ea 5c 3e 87 a3 6c bd
       -0.08021165 0.07955015 0.21573639 -0.05777314
000130 4c 4c 21 3d 47 a9 20 bd 95 e6 13 3c 61 a9 3a 3d
       0.039379403 -0.039223935 0.009027143 0.04557169
000140 08 b5 29 3d f0 76 be 3d 7a 50 66 3d 9b e0 86 3d
       0.04143241 0.09300029 0.056229092 0.06585809
000150 25 c1 3d 3d 1a 53 1f be 28 92 3f bc 4b 1d 03 3e
       0.046326775 -0.15559044 -0.011692561 0.12804143
000160 d9 ae a5 bc 0d 21 f4 3c 91 a0 0a bc 56 fd e8 3d
       -0.020224975 0.029800916 -0.008461134 0.11376445
000170 74 d2 35 bd f8 d7 06 3e 3a ca c3 3c 17 54 86 3d
       -0.044390157 0.13168323 0.02390014 0.065590076
000180 48 77 fb 3d 5c 35 95 bd 90 c0 6c 3d e6 15 f4 bc
       0.122786105 -0.07285568 0.05780083 -0.029795598
000190 43 88 69 3b 39 d1 aa be 56 24 77 be a8 df 0f bc
       0.0035634197 -0.3336275 -0.24134955 -0.008781351
0001a0 ad 20 1d 3d 6f 08 aa 3d f4 0d c3 3d 88 24 cf 3d
       0.03836124 0.0830239 0.09524146 0.1011439
0001b0 23 22 d1 bd 67 2d 70 3e 3e 3a 5c 3e 7d 1a 82 bc
       -0.10211589 0.2345482 0.21506593 -0.015881771
0001c0 28 33 6c bd d1 eb 06 3d 06 e2 98 3d 20 c5 38 3c
       -0.057665974 0.032939736 0.074649855 0.011277467
0001d0 61 09 03 bd 24 a2 ad 3c da f1 2c 3e 73 69 8d 3e
       -0.031991366 0.021195479 0.16889134 0.27619514
0001e0 e0 91 89 bb 58 fa a4 3d 13 2f a4 3d a3 64 69 bd
       -0.004198298 0.08055562 0.08016791 -0.05698074
0001f0 de 30 2c 3d 4e 0b 30 bd 5a 88 47 3e 19 2e 2b 3d
       0.04203879 -0.04297953 0.19485608 0.04179201
000200 a3 0b 39 bd 01 16 52 3d fa 0c 27 3e e2 a0 96 bd
       -0.045177113 0.051290516 0.16313544 -0.07354905
000210 26 c0 d4 3d 9e bd ef bc e6 9b 9e bd 31 d5 2b bd
       0.10388212 -0.029265221 -0.07744579 -0.041951362
000220 43 74 78 bc 2a d2 0a 3d ab a6 7a bd 58 bd 8a bd
       -0.015164438 0.033891834 -0.061194103 -0.06774396
000230 93 20 84 bd dd 54 da bc bf 63 78 bd 92 1f 8d bd
       -0.064515255 -0.026651794 -0.060642 -0.06890787
000240 bc 88 ba 3d e6 a4 09 be 6a 6b ce 3d 0b 49 16 bd
       0.09108111 -0.1344181 0.10079081 -0.036690753
000250 8f 04 4a 3c 4b 11 37 3d 40 20 96 bb 45 a0 f0 3d
       0.012330188 0.044694226 -0.004581481 0.11749319
000260 38 d9 76 bd c9 b6 3f be 27 34 a2 bd a4 c6 9f bc
       -0.06026575 -0.18722071 -0.079201035 -0.019503899
000270 e0 cc bd bc ad d7 71 bd f7 c3 45 3d 46 19 ac 3d
       -0.023168981 -0.059043575 0.04828259 0.08403258
000280 7e 93 43 3d fb 47 95 3d b3 2e 37 3d e6 6a 46 3d
       0.04774808 0.0728912 0.04472227 0.04844179
000290 d5 8d b0 ba 9b a2 b6 3d 39 fc 10 bc 2e 4a aa 3d
       -0.0013470004 0.08917733 -0.008849197 0.0831493
0002a0 fa 3a 1f 3d 75 ff a9 3d f1 53 7e 3b b0 0a 1c be
       0.038874604 0.08300678 0.0038807357 -0.15238452
0002b0 09 1a 5f bd 10 16 9a bd 2f 88 21 bc 39 ca 3b 3d
       -0.05446819 -0.07523739 -0.009859129 0.04584715
0002c0 98 03 18 3d 19 ed 35 bc cc fe b1 bc f6 98 24 bd
       0.037112802 -0.011103892 -0.021727942 -0.040184937
0002d0 bf 88 af bb f1 53 04 3d 5f e6 eb 3d 60 7c b5 bd
       -0.0053568776 0.032306615 0.11518549 -0.08861613
0002e0 40 ed e1 3c c7 0c 82 be 10 a0 47 3b 2e f4 39 3e
       0.02757895 -0.25400373 0.0030460395 0.18159553
0002f0 5d 1c 83 bb 05 b8 87 3d a9 c0 83 3d aa 07 32 bd
       -0.004001184 0.06626896 0.064332314 -0.04346434
000300 88 71 c8 bc 03 90 0c bd f3 2d 99 bd 7c 67 d2 3c
       -0.024468198 -0.034317028 -0.07479467 0.02568411
000310 e1 ba 5b 3c 1a e4 ab 3d 09 dc 74 3d c7 81 80 bd
       0.013411255 0.08393116 0.059780154 -0.06274753
000320 11 4c 68 bd 98 62 9f 3d e1 c5 b7 bc a4 16 45 bd
       -0.056713168 0.07782477 -0.022433223 -0.048117295
000330 5d 36 58 bc 9f 49 85 3d 75 a1 af bd ad 7f 11 bd
       -0.013196555 0.06508183 -0.08575717 -0.03552215
000340 1a b8 20 3d 61 4b 12 b9 7e 5c 62 3b ea 41 f1 bb
       0.039238073 -0.00013951726 0.0034539993 -0.007362594
000350 b9 ef 51 3d 4f ff bb bd 95 b2 c9 3c 9e 2b ac 3c
       0.051254008 -0.091795556 0.024621287 0.021016892
000360 b8 9f b7 3d b6 c6 83 bd a9 7f 6b 3d 5b 95 19 3d
       0.08966011 -0.064343855 0.057494793 0.037495952
000370 68 52 09 39 35 96 ed 3c 0c 40 ab bd 87 26 b7 bc
       0.00013096037 0.029002288 -0.08361825 -0.022357238
000380 bb c4 39 3c 09 57 92 bd d9 2d a3 bd 6f 3c 04 3e
       0.011338408 -0.07145507 -0.07967729 0.12913679
000390 1a b9 ea 3c ae e5 97 3d 2e 89 30 bd d0 9d 46 ba
       0.028652716 0.07416855 -0.043099575 -0.00075766165
0003a0 9c 44 8d bd 3b a0 5c 3c 26 5b 7d 3d 31 bf ea 3b
       -0.06897852 0.013465936 0.061854504 0.007163905
0003b0 0a 31 91 bd 31 8b 08 3d b8 ec ae 3c 1a ca 9b 3d
       -0.070894316 0.03333587 0.02135311 0.07606907
0003c0 63 ca 59 bc f3 47 58 3d 95 29 f5 3d 42 b5 0d 3d
       -0.013292882 0.05280299 0.11970822 0.03459669
0003d0 97 a5 3f bd 9a 4f 81 bd 5f 7e 33 3c 14 d2 61 3d
       -0.04678878 -0.06314011 0.010955422 0.055131987
0003e0 65 21 39 bd 90 d3 67 3d 1c 9c e1 bc a9 13 8e 3d
       -0.045197863 0.056598246 -0.027540259 0.069373436
0003f0 c5 55 15 bd d0 06 0a bd 81 54 12 be ef b9 86 3d
       -0.03645875 -0.033697903 -0.14290048 0.06578433

bias_ih_l0 f4 [150]
000000 b6 0c 2c be 7c 17 cd 3d 3f 54 3a bd 74 41 1b bb
       -0.16801724 0.10014245 -0.0454905 -0.0023690136
000010 8b 3f db 3d 85 e4 d8 be 41 a4 d9 3d 62 bc 62 3e
       0.10705479 -0.42361847 0.10627032 0.22142175
000020 fc 57 5f 3e 05 f0 1f be 55 f9 0e be 3b 24 22 be
       0.21810907 -0.15618904 -0.139623 -0.15834133
000030 64 e2 0d bc 1c 3f 50 bd 96 7d 54 3d 55 04 86 bd
       -0.008659933 -0.050841436 0.05187758 -0.06543795
000040 34 11 f0 bd e0 16 84 3d 5a 6a a6 bd 55 c0 2e be
       -0.11722031 0.064496756 -0.08125754 -0.17065556
000050 4b 32 c1 bc a0 59 5d 3b a2 75 d9 bb 1a 68 76 3e
       -0.023583552 0.0033775344 -0.0066363374 0.24063149
000060 d3 ec fe bd 58 a7 19 3d f2 e2 96 3d 5a 05 a5 3e
       -0.124475144 0.037513107 0.07367505 0.32230645
000070 ba 40 46 3c 7d 9c 47 bc 2f 9b 93 bd 9a b2 4c 3e
       0.012100393 -0.012183306 -0.07207333 0.19990006
000080 7a 60 88 3c 00 73 d4 bb 24 d6 55 be 63 2d c8 3b
       0.016647566 -0.0064834356 -0.2088247 0.006108926
000090 88 83 7f be ba 49 d1 3a b8 a9 7f bd e5 fe 83 3d
       -0.24952519 0.0015967407 -0.062417716 0.06445102
0000a0 a3 53 e5 b9 73 53 42 bd 71 b9 3f 3d c6 40 48 3d
       -0.00043740598 -0.047442865 0.04680771 0.048889898
0000b0 0d b7 b5 bd 59 a8 36 3e 7b a5 7d be f1 39 74 be
       -0.08872805 0.17837657 -0.24770157 -0.23850228
0000c0 0d 1b 83 3d 3f c6 8e bd 12 03 7d be 71 93 8c 3d
       0.06401644 -0.06971406 -0.24708202 0.0686406
0000d0 f6 45 55 3e 01 72 1f 3e ab a3 4b 3e 17 b0 ea bd
       0.20827469 0.15570833 0.19886653 -0.11459368
0000e0 76 43 4b bd d2 8f 09 3e 08 2a 65 3e bf 9a 89 bd
       -0.049624883 0.1343377 0.22379315 -0.067189686
0000f0 2e ee ac b8 20 40 6a bd 1b fc 8f 3c d2 6f 4e 3e
       -8.2459635e-05 -0.05719006 0.017576268 0.20159844
000100 89 df b5 3c 68 5e ff bd fa 22 83 bd 68 1d 37 be
       0.022201316 -0.124691784 -0.064031556 -0.17882311
000110 62 84 e7 bd 44 0a 23 bd 68 70 2f bb e1 b9 4a be
       -0.11304547 -0.039804712 -0.002676988 -0.1979747
000120 70 d0 62 ba b3 12 13 bf 4f 38 15 be b6 55 56 bd
       -0.00086522754 -0.5745041 -0.14572261 -0.052327834
000130 45 91 1e 3d ea e0 f8 3d d0 2f 3b 3e 1e f5 90 be
       0.03871276 0.12152274 0.18279958 -0.2831201
000140 bc 6f e6 bc 6a 6e a6 bc 62 aa 49 bd a9 a9 cd bc
       -0.028129451 -0.020316321 -0.049234755 -0.025105314
000150 bd 92 32 be 03 1b 93 3e 1a 04 86 bd 4d d8 0e 3d
       -0.17438789 0.28731546 -0.06543751 0.03487425
000160 a1 03 0b be 02 d5 05 3e a0 10 0f 3d 23 38 0f 3d
       -0.13575603 0.13069537 0.034927964 0.034965646
000170 44 b7 ab 3d 1f 2e c3 bd c2 7f ea bd 2d e5 38 3e
       0.083845645 -0.09530281 -0.11450149 0.18056174
000180 f5 0f 0a be 73 0e b2 bd 16 20 38 3e 6b cf 7c 3e
       -0.1348265 -0.08694162 0.1798099 0.24688499
000190 5f 38 fc bc 03 90 97 3d e1 db 42 3d ef 0d d9 be
       -0.030788599 0.07400515 0.047572974 -0.42393443
0001a0 23 c7 81 3b 63 73 81 be 37 a0 3e 3d 49 db 07 be
       0.0039605065 -0.25283346 0.04653951 -0.13267244
0001b0 4d ec 0a be 47 35 8d be ec 4b d0 bd 7a 96 08 be
       -0.13566704 -0.2757971 -0.10170731 -0.13338652
0001c0 b9 19 18 3e 0b 7c 00 be 6b cc e9 bd 26 ce a4 bd
       0.14853562 -0.12547319 -0.11415943 -0.08047132
0001d0 f6 0a cc 3d 40 23 72 bc aa 7a 98 3c 15 e6 5f be
       0.09963028 -0.014778912 0.018613178 -0.21865113
0001e0 40 c4 e1 bd f5 55 be bd 8d 80 45 bd 1b 00 41 bd
       -0.1102376 -0.09293739 -0.0482183 -0.04711924
0001f0 86 b9 a5 be ad 97 77 bc ab 27 5b be ba 85 9a 3c
       -0.32368106 -0.015111846 -0.21401851 0.018862594
000200 42 dc 69 3e 7e 04 0c 3e 47 4f 80 be 7a ee 8b be
       0.22837928 0.13673589 -0.25060484 -0.2733038
000210 09 23 87 bb 5e b3 67 3d 00 70 38 3e 79 41 59 3d
       -0.0041240496 0.056567542 0.18011475 0.053040955
000220 56 89 45 bc c1 ba c8 bd fe 6d 99 bd 9a db 4a 3d
       -0.012056669 -0.098012455 -0.074916825 0.049525835
000230 20 0a 03 3e 30 62 87 be 9e 05 2b 3d 85 10 f4 bc
       0.12796831 -0.264421 0.041753404 -0.029793033
000240 0c 60 f1 bd c6 f4 4a bd 3b c3 f9 bd d5 57 6b 3e
       -0.117858976 -0.04954984 -0.121954404 0.22982724
000250 13 5c 1a be 06 ed a4 3d
       -0.15074186 0.08053021

bias_hh_l0 f4 [150]
000000 ed be 0f be 17 7e cf 3c b3 ee 06 be 00 1d 08 bd
       -0.14037676 0.025328679 -0.13176994 -0.03323078
000010 ea 3e 7d 3d a6 d8 d1 be 6f 3a 86 3e 76 19 6e 3e
       0.061827578 -0.40985602 0.26216456 0.232519
000020 15 f6 f8 3d d4 19 4c be b1 b8 14 be e1 61 a6 bd
       0.121563114 -0.19931728 -0.14523579 -0.08124138
000030 32 b2 14 3d 6a 5e 54 bd af 93 8a 3d d5 63 1f bd
       0.036302753 -0.051847853 0.0676645 -0.038913567
000040 05 de 15 be a0 4e 57 bd 81 69 f8 bd 45 1d 5f be
       -0.14635475 -0.052565217 -0.12129498 -0.21788509
000050 6c 89 4b bd 3b 1e e1 bd 88 23 b6 bd 1a e7 4a 3e
       -0.049691603 -0.10992094 -0.08893496 0.19814721
000060 b8 05 19 bd 40 67 ad 3d e5 6a b5 3d f4 e9 70 3e
       -0.03735897 0.08466959 0.08858279 0.23526746
000070 e4 9a 2c 3b b9 d3 60 3d 73 3c e6 3c ac 07 08 3e
       0.002633744 0.054889414 0.028104996 0.13284177
000080 e7 b8 af bd 0e b1 9a bc 62 1e 85 be 16 99 ae 3d
       -0.08580189 -0.018883254 -0.25999743 0.085252926
000090 2b 09 89 be a0 50 b2 bc fb 25 f9 bc e2 7b 56 3e
       -0.26764807 -0.02176696 -0.030413618 0.20945695
0000a0 52 58 98 bc ac 82 2e bd 7d db a3 bc 13 e5 18 3d
       -0.018596802 -0.042605087 -0.020002121 0.037327837
0000b0 47 ad bb bd f5 15 09 3d 8f f0 c5 be 93 e8 2d be
       -0.091639094 0.033468205 -0.38660094 -0.16983251
0000c0 9d 0d 6c 3b e9 dd 22 3d 3d 35 16 be be c0 22 bd
       0.0036018856 0.03976241 -0.14668746 -0.039734595
0000d0 ad f6 6e 3e 9e 44 22 3e b4 02 53 3e 7c cc f9 bd
       0.23336287 0.15846488 0.206065 -0.121972054
0000e0 45 fe ca bd b6 43 d4 3c a4 4a 2f 3e 61 9d 17 be
       -0.09911779 0.025911193 0.17118317 -0.14806129
0000f0 54 3c 39 3d 7b 72 d7 bd 90 7b f9 3c 7b b5 f6 3d
       0.04522355 -0.10519882 0.030454427 0.120463334
000100 ad d5 9d 3d 00 d8 10 be bf 97 02 bd 0b 5b 12 be
       0.07706771 -0.14144897 -0.031882998 -0.14292543
000110 bd eb 00 3c 62 4d 4e 3d 65 49 81 bd 60 98 9f bd
       0.007868704 0.050366767 -0.06312827 -0.07792735
000120 91 a8 e6 bd 84 db eb be 9f 3f a8 bd 35 b1 cf bc
       -0.1126262 -0.46065915 -0.0821526 -0.025353054
000130 81 e4 bc 3d 3b 3d 66 3c 28 b3 9f 3d ee 0d 88 be
       0.09223271 0.014052684 0.07797843 -0.26573128
000140 1f f5 8e bd df 18 e2 bd 79 ec 80 3d 13 41 ca bd
       -0.06980347 -0.110399 0.062951036 -0.09875693
000150 93 83 35 be c3 6c a8 3e a0 6d a9 3d c4 28 dc bd
       -0.17725973 0.3289548 0.082728624 -0.10749963
000160 da b4 2d be cc db 6a 3e 8d 49 82 3d f3 a0 d4 bd
       -0.1696352 0.22935408 0.06361685 -0.10382261
000170 81 f1 d2 3a c4 30 e2 bd e7 f3 2a be 21 f1 32 3d
       0.0016093702 -0.110444576 -0.16694604 0.04368699
000180 59 e0 c1 bc d5 a2 45 be e1 d8 07 3e 60 38 ba 3e
       -0.023666548 -0.19300397 0.13266326 0.36371136
000190 02 d0 89 bd 3e b7 02 3e 8c 01 ce bc 65 3b d3 be
       -0.067291275 0.12765214 -0.025147222 -0.41256252
0001a0 8c cc 7f bb 21 44 56 be fb e6 d9 bb 4a 6e 73 bd
       -0.0039031832 -0.20924427 -0.0066498495 -0.05943135
0001b0 8c bd b2 bd 61 0d 5a be 76 d8 ca bc 6b a4 15 be
       -0.087275594 -0.21294166 -0.02476142 -0.14613502
0001c0 e5 50 3b 3e 95 19 8a bd c9 2a 92 bd 73 82 af bd
       0.18292578 -0.06743161 -0.07137067 -0.08569803
0001d0 ee 14 e4 3d a6 fa 5c bd a6 ba ea bb 85 f5 71 be
       0.111368045 -0.053949974 -0.0071633635 -0.23628815
0001e0 d4 b1 91 bd e2 97 2d bd 9b e7 5e 3d 60 30 88 bd
       -0.07113996 -0.042381175 0.054420095 -0.06649852
0001f0 46 23 9c be 8f f7 a9 3d 50 58 79 be 55 7e bd bc
       -0.30495661 0.08299171 -0.24350095 -0.023131529
000200 5e a1 61 3e bb d5 04 3d 9e c9 02 be a7 fd 8b be
       0.22034213 0.03243039 -0.12772223 -0.2734196
000210 8b d3 67 3d 08 c6 11 3e e5 32 01 3e 89 cc 3f 3e
       0.056598227 0.14235699 0.12617071 0.18730368
000220 0b 52 43 bd fe 13 cb bd a2 2a 9e bc 4c db 94 3d
       -0.047685664 -0.099159226 -0.019307438 0.0726839
000230 a3 8d d9 3d b1 43 8a be af 7d 43 3d f3 cb c6 bd
       0.10622718 -0.2700477 0.047727283 -0.09706869
000240 20 67 75 be fd 36 d8 3c 15 c3 01 be 61 eb 73 3e
       -0.2396512 0.026393408 -0.12672074 0.23820259
000250 36 25 dc bc 71 14 c6 3d
       -0.026873212 0.09671868

weight f4 [150, 150]
000000 45 7e 3e bd 83 e7 fa bd f9 3e 28 3d 30 43 c0 3d
       -0.04650714 -0.122511886 0.04107568 0.09387815
000010 b6 4c a0 bb 6c 3e 99 3d cc 1e 21 3c 59 e6 a3 3d
       -0.004891957 0.07482609 0.009834003 0.0800292
000020 f5 69 c6 3c 22 3f 5a 3d 73 65 8e 3b 73 d1 e0 3c
       0.024220446 0.053282864 0.00434559 0.027443623
000030 9f 82 8b bc 5c 37 92 3e e6 22 c1 b9 40 9d cc bd
       -0.017030058 0.2855786 -0.0003683783 -0.099909306
000040 c6 f7 30 3e 52 fd 11 bd bc 8f 8b 3c 9f 02 39 3d
       0.17282018 -0.035641976 0.017036311 0.045168515
000050 bc 26 a5 bb 95 4b 73 bc 43 82 1c 3d 8b 36 e8 bd
       -0.005040018 -0.014849563 0.038210165 -0.11338528
000060 f7 6c d4 3d 68 cd 82 3d 81 d7 8b be 56 6c 00 be
       0.10372346 0.063868344 -0.27312854 -0.12541327
000070 65 01 a2 3c 85 61 20 be 95 fb f7 bc f9 1e 6f be
       0.019776056 -0.15662201 -0.03027133 -0.23351659
000080 34 ea 2f bc e4 c2 e0 3c f6 5a bc 3d 52 71 8e be
       -0.010736991 0.027436681 0.09197037 -0.27820832
000090 6e ae d4 3c 07 a8 06 be a7 5a 68 bb df f6 e7 bc
       0.02596208 -0.13150035 -0.0035454424 -0.02831596
0000a0 8d 2e 9b 3d 01 4c d0 3d 1c 47 09 be 39 96 95 3c
       0.07577238 0.101707466 -0.13406032 0.018260108
0000b0 a5 2b 83 3d 99 f6 6e be 86 dc 74 3c c4 74 a0 3b
       0.06404809 -0.23336257 0.014945155 0.004896732
0000c0 dc df 6d 3c 1f ef b8 3d de 48 5c 3b 14 c5 b7 bd
       0.014518704 0.09029984 0.0033612768 -0.089731365
0000d0 07 37 80 3c 13 6b 18 3d f3 24 a5 bc f6 a9 3c 3e
       0.01565124 0.03721149 -0.02015922 0.1842421
0000e0 9b 76 c4 ba 91 3f 14 be 75 96 8b 3c 12 e6 be 3d
       -0.001498896 -0.14477374 0.017039517 0.09321226
0000f0 d2 13 a2 3e 1c 3d 79 bd 0a e6 ee 3d 3c 20 08 be
       0.31655747 -0.060849294 0.1166497 -0.13293546
000100 5a a9 3f bd c6 f2 7f 3d db 78 4b 3c a6 25 b2 bc
       -0.046792366 0.062487386 0.012418951 -0.021746468
000110 db 98 7a bc 06 8e 9a 3d d0 3e 09 3d 56 31 fa bb
       -0.015295233 0.0754662 0.03350717 -0.007635276
000120 ac 48 90 bd b8 89 3d bc 58 11 a6 3d dc 41 d5 bd
       -0.07045111 -0.011568479 0.08108777 -0.10412952
000130 bb 01 ca bd 63 69 77 be 58 8d dc bd 2a ad de 3d
       -0.09863611 -0.24161296 -0.10769147 0.10872872
000140 43 d9 a7 3c a8 3c 22 3d 5e 3e f5 3c 1f 50 9d 3d
       0.02048934 0.039608628 0.029936966 0.076812975
000150 8e 55 04 3d 10 cf 96 bd 8d e4 f7 bc d0 7f 15 3d
       0.032308154 -0.07363713 -0.030260349 0.036498845
000160 ce bc c7 bd 4a a7 49 bb da 29 21 3e 18 58 91 3d
       -0.097528085 -0.0030769878 0.15738621 0.07096881
000170 32 10 10 be eb 1f 86 bd b4 81 49 3e ee 38 f8 bc
       -0.14068678 -0.065490566 0.19678384 -0.030300584
000180 77 ad b8 3d ff fa 44 3d 41 80 31 3c bb c7 28 bc
       0.09017461 0.04809093 0.010833801 -0.010301526
000190 c5 d6 32 3e b5 56 a2 bc 93 f7 8f bd 33 93 aa 3d
       0.1746474 -0.019816736 -0.07029643 0.08328857
0001a0 6c d5 fc bd c5 ee 2c 3d 5a 86 60 3d 3e fc 36 bd
       -0.123453945 0.042219896 0.054815628 -0.04467415
0001b0 61 bc 87 bd 68 96 f8 bc ed 7f 00 3d 1a c8 3e be
       -0.06627727 -0.030345157 0.031372 -0.1863102
0001c0 ad 0c b9 3d 2f f4 2a 3e 51 2d d0 3d 2c 38 7a 3d
       0.09035621 0.16694711 0.101648934 0.061088726
0001d0 7a cb 42 be 8b c5 7c 3c 2c 3d 38 3c 3f 9b 5c bc
       -0.19022933 0.015427957 0.011245053 -0.013464748
0001e0 72 c7 f8 3d 12 89 b5 bc 49 9f b6 bd 4f a0 fa 3d
       0.12147416 -0.022160087 -0.089171 0.12237608
0001f0 0a 71 b9 bd 69 48 82 3d cd 98 d0 3d f7 5e 2d 3e
       -0.090547636 0.063614674 0.101853944 0.16930757
000200 17 60 be 3c 07 d3 5c be a3 4f 14 bc 3a cf 8a 3c
       0.023239179 -0.21564876 -0.00905219 0.016944516
000210 b6 86 0f 3c 95 65 49 3d ec 73 58 bc 63 6a ad bd
       0.008760145 0.04916914 -0.013211232 -0.08467557
000220 e1 e0 08 3e 22 9c 51 3d 09 b3 39 3e b8 bf 10 3d
       0.13367034 0.05117429 0.18134703 0.035339087
000230 5a 0e ad bc f0 8a ef bc c6 a1 51 bd a0 5f fa bb
       -0.021125007 -0.029241055 -0.05117967 -0.007640794
000240 48 d2 37 3d 3e 87 80 3d fd bf 21 3e e2 65 a5 bd
       0.044878274 0.062757954 0.15795894 -0.08076073
000250 6a 2b 7c 3e 6d dc 45 3c d8 1a 0a 39 12 b3 fc bd
       0.24625936 0.012076479 0.00013170706 -0.123388425
000260 eb 36 78 3d 97 54 9e 3d fe 7d d8 bd 9e 9c ee bc
       0.06059925 0.07730978 -0.10570906 -0.029127415
000270 9f 07 15 3d 5c 86 e7 3b a0 d1 fe bc 97 f9 c9 3d
       0.03638422 0.0070655774 -0.031105816 0.098620586
000280 d4 38 b4 3d fc 96 34 bb 26 fa b2 3d c4 9f 95 3e
       0.087999016 -0.0027555814 0.08739118 0.29223454
000290 36 9c c2 bd a0 2f 04 bc 05 92 2a 3e 9f 69 b4 bd
       -0.09502451 -0.008067995 0.16657265 -0.08809208
0002a0 05 ed ad 3d e5 87 e6 3d df c6 aa 3d 89 2f 70 3d
       0.084924735 0.112563886 0.08338713 0.058639083
0002b0 55 13 91 3d 09 91 bf bc 65 a0 d3 3d a9 1a da 3d
       0.070837654 -0.023384588 0.10333327 0.10649616
0002c0 bd c8 b4 be eb 53 93 bd 31 10 b4 3c b4 31 75 bd
       -0.353094 -0.071937405 0.021980377 -0.059861854
0002d0 cf a2 36 3d 27 15 7b be f9 12 90 bd f3 a1 22 3d
       0.04458886 -0.24519788 -0.07034869 0.039705228
0002e0 1f 9f 68 3e 61 42 8c be d0 e7 35 3d 87 55 67 bd
       0.2271695 -0.27394393 0.044410527 -0.05647805
0002f0 f0 c8 86 bb 5e e5 8a bc 42 a4 22 3d 0a 0f 8a 3d
       -0.004113309 -0.016955074 0.03970743 0.0674115
000300 d2 5c 81 bd 41 e5 64 3d d3 a9 9b bc 63 bd 8e be
       -0.06316532 0.055882696 -0.019001877 -0.27878866
000310 bb 23 c2 3d 80 09 44 3c 69 a4 05 be a0 5c 78 bc
       0.09479471 0.011965156 -0.13050999 -0.015158802
000320 b2 c5 fb bc 43 e2 83 bd 32 3a e9 3d 5c b5 9c 3d
       -0.030733917 -0.064396404 0.11388053 0.07651779
000330 c2 0b b2 38 9c 07 d6 3d 72 bd f6 bb 2d 09 6b be
       8.4898915e-05 0.1045067 -0.007529908 -0.22952719
000340 d3 6d 9b 3d d7 4c 83 bc 85 d7 bb 3e fe 07 17 bc
       0.07589307 -0.016027851 0.36687866 -0.009218214
000350 94 32 a6 3d e4 4b d0 bd 35 af 82 3c 18 af c3 3d
       0.08115116 -0.10170725 0.015952686 0.09554881
000360 79 9f ee 3d 71 21 fc bc 82 cb 07 3e db 31 aa 3d
       0.11651511 -0.030777665 0.13261226 0.083102904
000370 e7 dd 73 3d 25 c3 35 3d ac d0 78 3d fc 03 b9 bc
       0.059537794 0.044375557 0.06074588 -0.022584908
000380 41 6e 3e 3b 6e ed 96 bd b3 60 7b 3c 7d 58 80 be
       0.0029057416 -0.07369505 0.015342879 -0.2506751
000390 08 d6 db bd a3 f7 cd 3d a3 6b 09 3d 9f 10 4f bd
       -0.107341826 0.100569986 0.033549916 -0.05055296
0003a0 03 a6 4f 3d 6c 62 d4 3d bb 3d e0 3d e5 1f 6a bd
       0.05069543 0.10370335 0.10949274 -0.057159323
0003b0 bf d2 2e 3d 9d db e3 3d e4 81 10 be fc bc 6e bd
       0.042681452 0.11125872 -0.1411205 -0.0582857
0003c0 ad 0a 22 3e 6f ff 9d 3d 86 70 6e be bb 25 4c bd
       0.15824385 0.07714736 -0.23285112 -0.04984067
0003d0 1b 42 3b 3e 40 9a f4 3c 60 36 dc 3d 1a 80 c2 3b
       0.18286936 0.029858708 0.10752559 0.005935681
0003e0 13 74 01 be f5 a4 37 3d 4f 65 3a 3e ec 0d e2 3d
       -0.12641935 0.04483505 0.18202709 0.11037812
0003f0 73 1d 49 bd 35 1a f5 3d 40 23 6d be a5 58 d0 3c
       -0.04910035 0.11967889 -0.23157978 0.025432894

bias f4 [150]
000000 26 ef 2c bc ee b5 9f 3d 8e f5 bd 3d 7a 85 40 3d
       -0.010555064 0.07798372 0.092753515 0.047002293
000010 01 79 cf 3d c8 4e f8 3d 15 c6 b3 3d f7 3e 8a 3d
       0.101305015 0.12124401 0.087780155 0.06750291
000020 2d 9e 34 3c 17 78 4f 3c 10 ad b7 3d d2 63 36 3d
       0.01102404 0.012662909 0.08968556 0.04452879
000030 d8 e4 00 3e 75 46 86 3d 0d 3c 97 3d c8 5e 8e bd
       0.12587297 0.06556407 0.07384501 -0.06951672
000040 79 a5 ba 3d 0c 22 02 3e 60 d3 ef 3d 45 11 91 3d
       0.09113593 0.127083 0.117102385 0.07083372
000050 9e b1 fd bc 7f a9 32 3c 41 9a 0a 3d 8e cb 7c 3d
       -0.030968484 0.010904669 0.033838514 0.061717562
000060 02 4c cf bb bf 5c d6 3d 46 fa 87 3d 52 e4 74 3c
       -0.0063261995 0.10466909 0.06639533 0.014947014
000070 71 1e 6f 3d 49 1e 29 3d e2 13 44 bc 16 0c 42 3d
       0.05837864 0.041288648 -0.011967631 0.047374807
000080 df b9 c5 3d f4 1e 6e 3d 9d 37 5d 3d 32 1f e0 3d
       0.09654593 0.058134988 0.054008115 0.1094345
000090 92 62 30 3d ca 80 fa 39 59 23 3b 3d 78 64 f1 3c
       0.043062754 0.0004777967 0.045688007 0.029466853
0000a0 6b 77 99 3d 46 d4 4e 3d ab a5 12 bd ba 3b 86 3d
       0.0749348 0.05049541 -0.035802525 0.06554361
0000b0 bf a8 ec 3d c4 9d 87 3d 84 81 40 3d c8 0b 78 3d
       0.11555623 0.06621888 0.046998516 0.06055811
0000c0 84 47 5b 3d 9d cc 9e 3d 0a d9 af bc b9 c0 23 bc
       0.053535 0.07753871 -0.021465797 -0.009994679
0000d0 b2 a1 fa 39 dd 62 5e bc ea 00 ec 3d 42 e6 3f 3d
       0.00047804188 -0.0135733755 0.11523612 0.04685045
0000e0 66 f6 e7 3d 64 d9 e4 3d 86 14 d7 3d 15 58 0b 3d
       0.11326294 0.111742765 0.105019614 0.03401955
0000f0 7f 10 a9 3d 21 d1 4a 3d dd d7 95 3d 1f 01 07 bd
       0.082550995 0.049515847 0.07316563 -0.032960054
000100 b7 05 95 3d 73 80 5d 3d 53 84 92 3d 55 33 21 bd
       0.07276481 0.054077577 0.07154145 -0.039355595
000110 2d 91 02 3d 7b 96 44 bc 89 bd d8 bc 62 a3 c1 3d
       0.03187673 -0.011998768 -0.026457565 0.09454991
000120 a2 c9 1c 3d 9b e2 79 3d 9e 0a 95 3d ea b4 a2 bd
       0.03827823 0.061007123 0.07277416 -0.07944663
000130 2f ca 20 bd f8 f1 bc 3c ca 4b a0 3d 27 87 15 3e
       -0.039255317 0.023064598 0.078269556 0.14602338
000140 93 41 97 3d fd 10 db 3d 5c e3 4c 3d 2e 41 a6 bc
       0.07385554 0.106966 0.050021514 -0.020294752
000150 8b 7f 9a bd 80 2b 45 3d 7b 78 a8 bb 61 32 db bc
       -0.07543858 0.048137188 -0.0051413155 -0.026757421
000160 eb 43 95 bd cc 08 07 3d b7 7e 77 3d 4f 38 96 3c
       -0.07288345 0.032967374 0.06042358 0.018337397
000170 d0 06 eb bc 64 11 ce 3d 83 48 8e 3d 35 5f dd 3d
       -0.028689772 0.10061911 0.06947424 0.10809175
000180 57 b3 68 3d e0 b1 bc bc 37 9d d1 3d b1 75 bb 3d
       0.056811657 -0.023034036 0.102350645 0.09153307
000190 4b fb 91 3b d5 81 08 bd c1 8e c6 3b 8f be bc bc
       0.0044550053 -0.033326942 0.006059498 -0.023040084
0001a0 8b f9 1f 3d 90 ee 48 bd 1e 70 2f b9 45 c9 ef 3d
       0.039056342 -0.049055636 -0.00016731067 0.11708311
0001b0 f1 40 c9 3d 2a 14 04 3d 09 67 2d bd 54 c9 60 bc
       0.0982684 0.032245792 -0.04233459 -0.013719875
0001c0 33 bd 0b 3d 96 c7 ba 3c bf 84 6d 3d 37 26 c2 3d
       0.03411598 0.022800248 0.057987925 0.09479945
0001d0 84 07 9a 3d 7a d0 01 3e 2a bb ed 3d c1 d2 20 3b
       0.07520965 0.12677184 0.11607964 0.0024539682
0001e0 23 f9 66 3d af 7e b7 3d b9 2e 45 3d db b3 74 3d
       0.05638994 0.0895971 0.04814026 0.059741836
0001f0 73 b0 da 3d e1 fa b8 3d f6 0c 39 3d 97 ef 01 3d
       0.10678186 0.09032226 0.045178376 0.03172263
000200 cc e3 c6 3a ec e1 0b bc 65 67 7b 3d 09 73 e0 3d
       0.001517409 -0.008537751 0.0613779 0.10959441
000210 41 e0 06 3e ab dc 02 bd 7b a2 f6 3d 67 a9 8d 3d
       0.13171484 -0.031948727 0.120427094 0.069170766
000220 79 3d 12 3d 99 5a ab 3d d4 4b c9 3d 94 b7 ec 3d
       0.035703156 0.083668895 0.09828916 0.11558452
000230 b5 7f 8b bc 42 ab d2 bc 8a ba a3 3d 21 cd de 3d
       -0.017028669 -0.025716428 0.07994564 0.10878969
000240 6a 71 5d b8 30 5c 43 3d 60 a5 fe 3b 38 83 89 3d
       -5.279613e-05 0.04769534 0.007771179 0.06714481
000250 9d a8 f6 3c f5 9c 57 3d
       0.030109698 0.05263992

weight f4 [2, 150]
000000 7e 68 06 3e f8 df 11 3e b8 c2 c8 3d ae ef 3e 3e
       0.13125798 0.14245594 0.09802765 0.18646118
000010 3a bb e4 bd 0b 63 38 3e 15 4e 1c 3e 26 93 31 3e
       -0.11168523 0.18006532 0.15264161 0.17341289
000020 20 cc e1 bd 50 c8 59 be 62 38 f2 bd f7 ce 76 3e
       -0.11025262 -0.2126782 -0.118271604 0.24102388
000030 a5 f5 03 3e 7f 82 2b be 32 b2 e3 bd a9 a8 0e be
       0.12886675 -0.16748999 -0.111179724 -0.13931526
000040 76 73 1e 3e 20 b2 72 3e 2d f6 e5 3d 0e ec 56 be
       0.15473732 0.23700762 0.11228595 -0.20988485
000050 e9 f6 1e 3e 4c 9c 55 be 0d f4 15 be fe ee 5a bd
       0.15523876 -0.20860404 -0.14643879 -0.053450577
000060 9a 17 a4 bd 04 cc e9 3d 3b 9c 09 3e 17 b1 1f be
       -0.08012314 0.11415866 0.13438503 -0.15594898
000070 e9 e9 d7 bd 92 7c 0b 3e 41 fe 15 be f4 41 fe 3d
       -0.10542662 0.13621739 -0.14647771 0.12414923
000080 b8 c9 71 3d 58 f8 b9 3d 1d af 85 3e 51 3b ef 3d
       0.059030265 0.09080571 0.26110163 0.116812356
000090 f2 48 c8 bd 43 c0 02 be 39 5a ff bd c6 f1 fa 3d
       -0.09779538 -0.12768655 -0.124683805 0.12253146
0000a0 bc b6 15 3e a0 00 e9 bd 20 92 5e bd f4 9b f4 3d
       0.14620489 -0.11377072 -0.054338574 0.11943808
0000b0 b0 a4 a4 3d 05 f7 d6 3d b2 f6 f9 3d 7e 52 05 3e
       0.08039224 0.10496334 0.122052565 0.1301975
0000c0 89 26 b5 bd c3 e8 69 3e 5d f3 12 3e 17 0a d9 3d
       -0.088452406 0.22842698 0.14350648 0.105976276
0000d0 56 0d 1a be 4a e6 34 bc 35 b1 06 3d 69 d6 f8 bd
       -0.1504415 -0.011041233 0.03288384 -0.121502705
0000e0 b2 a3 07 3e de 11 f1 3c 50 21 da bd b5 d9 aa bd
       0.13246039 0.029427465 -0.10650885 -0.083423056
0000f0 cc 36 b0 bd fe a3 d0 bd 07 70 0b be 9a 69 4a 3e
       -0.08604202 -0.10187529 -0.13616954 0.19766846
000100 9f ec 44 3e da d5 69 3e 4b 73 37 3e 55 dc 2a 3e
       0.19230889 0.22835484 0.17915075 0.16685612
000110 cf 90 5c be eb 48 2a 3e 0d f5 f8 3d 2e 3b 99 3d
       -0.21539615 0.16629378 0.12156115 0.07481991
000120 ef 21 21 3e a3 7f de bd 26 ab d4 3d 90 52 3d 3e
       0.15735601 -0.108641885 0.103842065 0.18488526
000130 0b 3d e7 bd 78 76 d5 3d 3b 33 ed 3d 9c 56 bf 3c
       -0.1129094 0.10422987 0.11582037 0.023356728
000140 95 d6 ff 3d 59 4f c4 bd 11 83 0e bf c3 54 2d 3e
       0.124921 -0.09585447 -0.5566874 0.16926865
000150 d1 da 0e be c8 ff 13 3d 42 96 2c 3e 74 d7 cc bd
       -0.1395066 0.036132604 0.16854194 -0.10002032
000160 f3 88 28 be dd 18 d0 3d c3 e4 e6 3c 7d 72 4c be
       -0.16458492 0.10160992 0.028185254 -0.19965549
000170 35 5b 6c be 7e c1 2b 3d b9 89 61 3e d5 a6 57 bd
       -0.23081668 0.041932575 0.22025193 -0.052649338
000180 4b c0 fb bd 80 09 0b be ff c7 1c 3e 40 0d 5b be
       -0.12292536 -0.13577843 0.15310667 -0.21391773
000190 2d dc 0e be 87 78 fe 3d bf 16 11 be 05 da 02 3e
       -0.13951178 0.124253325 -0.14168833 0.1277848
0001a0 7d f7 0f 3e 05 bc e9 3d 9c 65 96 bd f3 da 03 be
       0.14059253 0.11412815 -0.07343599 -0.12876491
0001b0 90 03 bb 3c 90 4f f0 bd 8c 58 29 3e bf 22 21 3e
       0.022828847 -0.11733925 0.16537684 0.15735911
0001c0 d6 61 f1 bd d0 7e f6 bd 13 f3 f4 bd f2 de 5c 3e
       -0.11786239 -0.12035906 -0.11960425 0.21569422
0001d0 5e b7 1f 3e ec ac f1 3d 52 f9 1a be 72 e6 ca 3d
       0.15597293 0.1180056 -0.1513417 0.09907235
0001e0 e0 39 bc bd 25 a7 ae bd b9 a0 a1 3d 80 d0 e5 bd
       -0.09190726 -0.08527974 0.078919835 -0.11221409
0001f0 94 be ce 3d 4f ed fa bd d2 f0 ff 3d d0 5f 57 3e
       0.10094944 -0.12252294 0.12497105 0.21032643
000200 fa df 41 3e 5b 44 03 be 0e fc 02 be a2 5b e2 bd
       0.18933097 -0.12819044 -0.12791464 -0.11052634
000210 b4 11 a0 3c df 52 12 be fd cd 56 bd 0d cf 6b 3e
       0.019539692 -0.14289425 -0.05244254 0.23028202
000220 12 84 b4 3d 80 10 07 be 0d 3b 34 3e 8a ec 04 be
       0.08814253 -0.13189888 0.17600651 -0.12980857
000230 00 db 58 3e 6f db a8 bd 1c 19 e3 3d 95 2f 16 be
       0.21177292 -0.08244979 0.110887736 -0.14666589
000240 7e 0b 43 3d 0c ff 00 3e 68 f2 b0 bd 6b c1 56 3d
       0.04761838 0.12597293 -0.08639985 0.05243055
000250 68 dd b1 3d 04 2f e0 bd e7 91 6e 3d d6 31 04 3d
       0.08684808 -0.109464675 0.058244612 0.03227409
000260 30 18 fa 3d 40 a2 d0 3c 95 ed 31 3d ef b7 83 bc
       0.12211645 0.025467992 0.043439467 -0.016078917
000270 10 98 e2 3d e1 76 74 3b 0c 14 b0 3c 08 b9 dd 3d
       0.1106416 0.0037302303 0.021493934 0.108263075
000280 f4 65 a0 3d 15 a0 57 be 25 96 00 3e 00 32 25 3e
       0.07831946 -0.2105716 0.12557276 0.16132355
000290 ee e9 89 3a ad e1 cc bd 62 a1 0c 3d 63 64 1b be
       0.0010521987 -0.10003982 0.034333594 -0.15175013
0002a0 6d 6e 59 3d 59 60 0c 3e ce 30 1c 3c 5f 53 df 3d
       0.053083826 0.13708629 0.00953312 0.10904574
0002b0 8c 44 44 bd 72 99 85 3e 67 51 00 be e0 59 61 3d
       -0.047916934 0.26093632 -0.12531053 0.055017352
0002c0 23 56 6e 3d ba 2a 03 be be a7 c0 ba d3 58 fd 3d
       0.058187615 -0.12809268 -0.0014698429 0.123704575
0002d0 3f 70 57 bd 58 d9 cd 3d 55 1e 15 3e cf 71 38 3d
       -0.05259728 0.10051221 0.14562352 0.04503041
0002e0 3f 30 fc bd 6b 36 aa 3d 7e 1b c2 bc e1 27 91 bd
       -0.1231389 0.08311161 -0.02369475 -0.070876844
0002f0 96 21 37 3d 5e c6 10 3e 0d 3f 1d 3d 8d b5 3a 3d
       0.044709764 0.14138171 0.038390208 0.045583297
000300 c8 67 eb bd 98 4a 09 3e 0d 85 0e 3e d5 cb 85 3d
       -0.11494404 0.13407362 0.13917942 0.065330185
000310 25 ec 90 3d 09 a9 a0 3d 21 e9 d1 bc 16 ef e9 bd
       0.07076291 0.07844741 -0.02562386 -0.11422555
000320 83 de b5 3d 96 81 81 3d 8b c4 73 bc 95 ad 8c 3e
       0.08880331 0.06323545 -0.014878402 0.27476183
000330 91 2a 2d 3e 8a d4 c9 bd 30 bb 1c 3d 94 13 8d 3e
       0.16910769 -0.09854992 0.038264453 0.27554
000340 62 94 fb bd b7 2d 85 bd f7 c3 ad 3d 19 df 89 3c
       -0.12284161 -0.0650286 0.08484643 0.016830014
000350 d2 34 98 3d 00 61 87 bc 11 c7 2c bd c5 80 8f bd
       0.0743195 -0.016525745 -0.042182032 -0.07006983
000360 34 d5 d2 3a 2f 62 dd 3b 23 7f 16 3e 99 2b 9d 3c
       0.0016085268 0.006756089 0.14696936 0.019185828
000370 14 ef 90 3d 52 62 04 3e ce 12 09 3d b1 90 05 3d
       0.070768505 0.12928131 0.0334652 0.03260869
000380 34 b3 9c 3d 77 bf 69 be 9c 0d f1 3b 9e d5 44 3d
       0.07651368 -0.22826944 0.0073563587 0.048055284
000390 ae 27 9a 3d 30 3b 3a 3e c7 03 fe 3d ba 65 89 3d
       0.075270995 0.1818664 0.12403064 0.06708856
0003a0 49 65 e0 3e 44 0b 34 bc a6 02 d3 38 bb 21 47 3e
       0.43827274 -0.010989014 0.00010061757 0.19446461
0003b0 cf be 00 bb 09 e1 69 3d 65 92 13 3d 8f 95 8e 3d
       -0.001964498 0.057099376 0.036028285 0.0696212
0003c0 e1 12 21 3e 3a 9e 62 bd a7 ae 3a 3d 97 8b 3b 3e
       0.15729858 -0.055326678 0.045576718 0.18314968
0003d0 2b ee 1b be e1 47 6e be 8c 70 48 3d 3d 41 c8 bc
       -0.15227573 -0.23269607 0.048935458 -0.02444517
0003e0 25 c3 bc 3c f5 2b f4 3d 2c 39 bb 3d 99 89 f8 3d
       0.02304227 0.11922447 0.09141764 0.1213562
0003f0 3c 5b c3 bd 81 01 c4 3d 16 e6 57 3d a2 8d 39 be
       -0.09538886 0.09570599 0.05270966 -0.18120435

bias f4 [2]
000000 ec cd ac 3d 69 ca f8 3d
       0.08437714 0.12147982
