models/RNN_PAST8_FUTURE3_H350_L1.pt (torch, 712344 bytes, 8 tensors)

weight_ih_l0 f4 [350, 2]
0.12941869 -0.12544751 0.09026733 -0.12090968 0.06093218 0.110924095 -0.37309578 -0.03100937
-0.069529764 -0.21018097 0.082028784 -0.036702197 -0.1402928 0.1411346 -0.062144406 -0.027725795
0.37038955 -0.047833845 -0.0756376 -0.04840893 0.0974848 -0.070603415 0.055960752 -0.47011602
-0.12507325 0.090006776 0.064258166 -0.024936575 -0.14996469 0.33934906 0.069287434 0.079290695
-0.1223138 0.090999424 0.04950891 -0.13180119 -0.08416171 0.053669542 -0.07998837 0.29497108
0.41158006 0.047561124 -0.0015412379 0.007187986 0.081755884 -0.04749717 0.093339846 -0.10537031
0.08837243 -0.30637762 0.02992671 -0.027810605 -0.079508975 0.2556579 -0.10406148 -0.1372302
0.077777706 -0.33893168 -0.061598897 -0.013829512 -0.5242131 -0.0072170985 -0.18409601 0.15080468
-0.088565774 0.014867092 0.06282187 -0.2482303 0.09318641 0.04876432 -0.037723783 -0.034897555
-0.1541742 0.13155389 -0.057695292 0.6172947 0.11221249 -0.31024906 0.13597843 -0.09751793
-0.09819287 0.45549798 0.06282881 0.04038913 0.14837532 0.05305083 -0.27988422 0.07322086
-0.08560057 0.17054515 -0.2219422 0.022532811 0.17627892 -0.16073821 0.06481018 0.015175809
0.25590527 0.009245465 -0.06537538 0.006143542 -0.07217193 -0.049203895 -0.07859 0.044469584
-0.04764629 0.25043038 -0.097357824 -0.055940542 0.089317486 -0.28639102 0.110737674 0.07415957
-0.10192877 0.2831508 0.17821568 -0.088144936 -1.0690333 -0.1526672 -0.070764214 0.31523338
-0.0865797 0.1123315 -0.14143352 0.26332733 0.57752484 0.056656267 0.25051585 0.05790509
0.08894782 -0.038613725 0.037696812 0.017212335 0.14657329 -0.14037198 -0.083612874 0.392649
-0.06933608 -0.030607944 0.09314731 -0.18597096 0.10187455 -0.39603817 0.10889679 -0.1160819
-0.1424457 0.10349229 -0.2759532 0.02702729 -0.046495203 -0.121905416 -0.083446555 -0.13792895
0.24856396 0.046532623 0.09737983 -0.2593295 0.06911617 0.038362674 -0.32019675 0.009621508
-0.07532136 0.16029619 -0.20430979 -0.036542717 0.093411334 -0.039916854 -0.078437105 -0.0763397
0.100066304 -0.3428339 0.059529353 0.26374027 0.12766132 -0.20769368 0.0860121 -0.10002967
0.18496801 -0.038981747 0.092328764 0.120341666 0.07599661 0.2274405 0.08710439 0.12720463
0.22027266 0.05158273 -0.10086323 -0.045605734 0.14894049 -0.1315499 -0.08187693 -0.05015197
1.1405759 0.082581386 0.097404525 -0.061068002 -0.16915816 0.120735295 0.16815616 0.015613891
-0.076781794 0.31230432 -0.08386808 -0.001391031 0.3229891 0.05199355 0.16082704 -0.14438944
-0.06350281 -0.03164419 -0.4006617 0.030958265 0.20574519 -0.8040247 0.33355048 -0.005607673
-0.055198878 0.013573677 -0.059671883 0.11436667 0.076216035 0.05401089 -0.06650991 0.68206733
-0.09056562 0.06355524 0.31563577 0.006779215 0.18936631 -0.008837852 -0.1826978 0.044144653
0.30636823 -0.051641453 0.15655637 0.07403771 -0.35830298 0.04499652 0.034141112 0.000991588
0.3464145 -0.036082316 -0.1985299 -0.05419916 0.12686826 -0.2710703 -0.07195652 -0.03309559
-0.18343574 0.32035372 -0.08749438 0.16734375 0.073566146 -0.39704332 -0.30393052 0.024707682
00000000: 5586 043e 5075 00be 14de b83d 7f9f f7bd
00000010: 0694 793d 2c2c e33d 6906 bfbe 5d07 febc
00000020: 9f65 8ebd ae39 57be b5fe a73d 0b55 16bd
00000030: eaa8 0fbe 9785 103e 228b 7ebd 3521 e3bc
00000040: b3a3 bd3e 6ced 43bd e3e7 9abd 7148 46bd
00000050: 1ca6 c73d 8698 90bd 1a37 653d 0cb3 f0be
00000060: 3413 00be 7955 b83d c999 833d ca47 ccbc
00000070: 5890 19be 29bf ad3e 92e6 8d3d 2963 a23d
00000080: a87f fabd e85d ba3d dbc9 4a3d e4f6 06be
00000090: fa5c acbd 98d4 5b3d f1d0 a3bd 7306 973e
000000a0: 9fba d23e 74cf 423d 5d03 caba 3289 eb3b
000000b0: a16f a73d 648c 42bd f628 bf3d 64cc d7bd
000000c0: 9bfc b43d 87dd 9cbe dc28 f53c 11d3 e3bc
000000d0: 9ad5 a2bd 98e5 823e 2f1e d5bd 1386 0cbe
000000e0: eb49 9f3d 7488 adbe 204f 7cbd 2d95 62bc
000000f0: d432 06bf 697d ecbb aa83 3cbe 8b6c 1a3e
00000100: f961 b5bd 1a95 733c c1a8 803d 1530 7ebe
00000110: 84d8 be3d 18bd 473d 4184 1abd bdf0 0ebd
00000120: d7df 1dbe 10b6 063e e651 6cbd 0707 1e3f
00000130: a9cf e53d f7d8 9ebe ee3d 0b3e 7bb7 c7bd
00000140: 5819 c9bd 0837 e93e 64ac 803d 136f 253d
00000150: b3ef 173e d44b 593d fc4c 8fbe d1f4 953d
00000160: 5a4f afbd 63a3 2e3e d144 63be bb96 b83c
00000170: 7682 343e 8f98 24be 33bb 843d f5a3 783c
00000180: 0406 833e 4a7a 173c 87e3 85bd c44f c93b
00000190: e0ce 93bd 068a 49bd cbf3 a0bd bd25 363d
000001a0: c228 43bd 6938 803e 8a63 c7bd e921 65bd
000001b0: 16ec b63d d8a1 92be 6fca e23d f9e0 973d
000001c0: 08c0 d0bd 24f9 903e 2c7e 363e 5585 b4bd
000001d0: 15d6 88bf ca54 1cbe d4ec 90bd 4566 a13e
000001e0: b350 b1bd 0f0e e63d f3d3 10be d7d2 863e
000001f0: abd8 133f 6710 683d 9d43 803e e32d 6d3d
00000200: 462a b63d 6d29 1ebd f967 1a3d e200 8d3c
00000210: 4f17 163e acbd 0fbe 3a3d abbd 4a09 c93e
00000220: 1300 8ebd 83bd fabc 04c4 be3d 2c6f 3ebe
00000230: 9ba3 d03d 84c5 cabe 4805 df3d 59bc edbd
00000240: 49dd 11be c4f3 d33d bd49 8dbe 5668 dd3c
00000250: c171 3ebd 8ca9 f9bd 07e6 aabd 3f3d 0dbe
00000260: 8d87 7e3e fe98 3e3d 146f c73d d6c6 84be
00000270: c78c 8d3d 2e22 1d3d d4f0 a3be 88a3 1d3c
00000280: 1642 9abd af24 243e 9636 51be d1ad 15bd
00000290: 714e bf3d db7f 23bd a2a3 a0bd fd57 9cbd
000002a0: 90ef cc3d ed87 afbe 0dd5 733d f708 873e
000002b0: a6b9 023e a7ad 54be 1d27 b03d 5bdc ccbd
000002c0: 4168 3d3e 53ab 1fbd dd16 bd3d b175 f63d
000002d0: 1ca4 9b3d 2ae6 683e c963 b23d ee41 023e
000002e0: 288f 613e 6a48 533d 6291 cebd 14cd 3abd
000002f0: db83 183e 04b5 06be 18af a7bd 276c 4dbd
00000300: 64fe 913f 6e20 a93d 067c c73d 7122 7abd
00000310: cc37 2dbe 1144 f73d 2131 2c3e 68d1 7f3c
00000320: c63f 9dbd 5ae6 9f3e 07c3 abbd 4153 b6ba
00000330: d45e a53e 30f7 543d d8af 243e d3da 13be
00000340: c30d 82bd 579d 01bd 8823 cdbe 309c fd3c
00000350: deae 523e 90d4 4dbf 21c7 aa3e 92c0 b7bb
00000360: 3818 62bd 2164 5e3c 816a 74bd 1339 ea3d
00000370: 2717 9c3d 863a 5d3d 5936 88bd f79b 2e3f
00000380: 787a b9bd 4029 823d 039b a13e 2d24 de3b
00000390: 3ee9 413e a3cc 10bc 2215 3bbe 06d1 343d
000003a0: 4cdc 9c3e fd85 53bd 5050 203e 15a1 973d
000003b0: 7d73 b7be 454e 383d 8dd7 0b3d 2cf8 813a
000003c0: 3e5d b13e 0dcb 13bd 6c4b 4bbe f0ff 5dbd
000003d0: c1e9 013e bac9 8abe f15d 93bd 3e8f 07bd
000003e0: 94d6 3bbe 6705 a43e 4130 b3bd 295c 2b3e
000003f0: d9a9 963d 4349 cbbe c89c 9bbe c467 ca3c

weight_hh_l0 f4 [350, 350]
0.3015954 0.13829312 -0.04129945 0.0069598905 0.0665079 0.010966781 -0.12131236 0.0451919
0.111246504 0.026600635 0.06578587 0.09244514 -0.056779742 0.05016441 -0.060908545 -0.060656637
-0.0395185 0.119422354 0.027946778 -0.110757 -0.041130077 0.06909618 0.045257658 0.13207006
0.07465615 0.058437407 -0.037899476 0.07261356 0.14214297 0.023026813 -0.035199653 -0.10293265
-0.0052124066 0.104269594 0.031893887 0.030785277 -0.0651876 -0.05130274 0.07510188 0.0061450247
-0.069339946 -0.052769117 0.0133093 0.0484078 -0.086451255 0.06866491 0.15071888 -0.01944527
-0.0022994957 0.03302921 0.048592366 -0.0047542006 -0.022935763 0.07669894 0.046064015 -0.02849484
-0.021059532 0.06157817 -0.030788884 -0.12013581 -0.031989373 -0.004118235 0.03285798 -0.09448338
0.022150965 -0.04152193 -0.009247384 -0.07742124 0.055883277 0.12114436 0.08920233 0.16385397
-0.07656178 -0.038264126 0.06953102 0.041656256 0.029953973 0.091450796 0.03189297 -0.0186483
0.018405087 -0.0048214477 0.004254224 -0.02374001 0.028660184 -0.0037645318 0.05944243 0.049710486
0.015357799 -0.06031041 -0.041545402 -0.04715406 0.0054512764 0.03292567 0.12316383 0.097613364
0.06404268 0.012142268 -0.18483786 -0.03258732 -0.08360884 0.034784507 0.015676443 0.11740304
0.016436577 0.041656367 0.014227785 -0.04179715 0.056731384 0.07439337 -0.061793495 -0.11931345
-0.024405088 0.0856707 -0.010358273 0.06750577 -0.04155771 0.0056605944 -0.08378679 0.0070033865
0.05566226 -0.04544974 0.053478036 0.04107499 -0.035566494 -0.094856426 0.10042442 0.06176773
-0.09093723 -0.101932906 0.03146633 -0.024578623 0.06269746 -0.13850024 -0.006637008 0.06740241
0.091989785 0.071080275 -0.04293395 -0.011291303 -0.030970791 -0.06637641 -0.09207666 -0.0102773495
0.0388641 0.15851277 0.20229605 0.0333694 -0.022300646 0.04814774 0.02852544 -0.07689503
0.03838147 -0.103765644 0.015360744 -0.0038875174 0.109394126 -0.049558245 0.041739523 -0.052208398
-0.050201513 -0.09131769 0.13265713 -0.029710045 -0.03904971 0.0064559677 -0.0064061102 -0.15683126
-0.09582054 0.007740557 0.039398722 -0.012685612 -0.043381374 -0.103360504 -0.08128032 -0.08621639
0.09036237 0.02907454 0.15226094 -0.013551051 -0.0047520176 0.09836525 0.103336014 -0.044126734
-0.022775529 -0.011811121 0.031122414 0.07625907 -0.017612362 -0.026285756 -0.021247592 0.004375631
0.023081128 -0.023475947 0.003605211 -0.06819944 0.18283413 -0.015977247 0.038576916 -0.011909774
0.009209434 0.04505195 0.004867925 0.03712611 0.013167507 -0.117831886 0.050456453 -0.05014702
0.0963149 0.03739865 0.102806695 -0.10987779 0.16509111 0.03325134 -0.08053044 0.0013211063
0.1096444 0.044192716 -0.03040561 -0.038187303 -0.00067111675 -0.044341624 0.032561876 0.00067076925
-0.07967552 -0.033768408 0.10744495 0.009260563 0.11657478 0.015098681 -0.11973621 0.043350264
0.050709333 -0.01669574 0.044271503 -0.01630612 -0.036272086 0.008574574 0.00040800835 0.0404091
0.0057209427 0.05105776 -0.0015976718 -0.004519011 0.056880027 0.0552503 -0.0757371 0.0018913003
0.07926018 -0.09201212 -0.034327086 0.044710413 0.00029280287 -0.16378756 -0.028679747 0.039530486
00000000: b66a 9a3e b69c 0d3e 9d29 29bd cb0f e43b
00000010: 4b35 883d 03ae 333c 9d72 f8bd 241b 393d
00000020: 35d5 e33d 93e9 d93c beba 863d e153 bd3d
00000030: e091 68bd 3279 4d3d 3d7b 79bd 1873 78bd
00000040: 27de 21bd b593 f43d a4f0 e43c 91d4 e2bd
00000050: 0378 28bd 4c82 8d3d 1860 393d 603d 073e
00000060: 53e5 983d 105c 6f3d 7b3c 1bbd 6bb6 943d
00000070: ed8d 113e baa2 bc3c 832d 10bd 5ace d2bd
00000080: d6cc aabb 4c8b d53d 2aa3 023d 6831 fc3c
00000090: 1481 85bd d222 52bd 04cf 993d 345c c93b
000000a0: 1a02 8ebd 6e24 58bd 400f 5a3c 4247 463d
000000b0: 5b0d b1bd 30a0 8c3d 0d56 1a3e b04b 9fbc
000000c0: 23b3 16bb a349 073d ca08 473d 20c9 9bbb
000000d0: c8e3 bbbc 5514 9d3d 9fad 3c3d 036e e9bc
000000e0: 0a85 acbc 6439 7c3d f838 fcbc c309 f6bd
000000f0: 4a07 03bd 42f2 86bb 1796 063d 8180 c1bd
00000100: f175 b53c e612 2abd 5782 17bc 078f 9ebd
00000110: dde5 643d 891a f83d b6af b63d 56c9 273e
00000120: 6ccc 9cbd d8ba 1cbd 4866 8e3d c09f 2a3d
00000130: 0962 f53c 8e4a bb3d 34a2 023d 52c4 98bc
00000140: 44c6 963c 3cfd 9dbb 0467 8b3b 697a c2bc
00000150: c3c8 ea3c 5db6 76bb e879 733d 399d 4b3d
00000160: 479f 7b3c 0c08 77bd 832b 2abd 9e24 41bd
00000170: 9fa0 b23b 11dd 063d 513d fc3d 84e9 c73d
00000180: cf28 833d 5df0 463c 2346 3dbe 487a 05bd
00000190: 1d3b abbd 337a 0e3d e26b 803c 0171 f03d
000001a0: 00a6 863c de9f 2a3d a81b 693c 7d33 2bbd
000001b0: 2b5f 683d 8d5b 983d 2d1b 7dbd 9c5a f4bd
000001c0: 2eed c7bc 1f74 af3d bfb5 29bc 7740 8a3d
000001d0: 6b38 2abd 827c b93b 6998 abbd aa7c e53b
000001e0: 1cfe 633d 8229 3abd c90b 5b3d 403e 283d
000001f0: 2cae 11bd 1644 c2bd 51ab cd3d 2900 7d3d
00000200: 4c3d babd 33c2 d0bd d7e2 003d 1c59 c9bc
00000210: 8767 803d 02d3 0dbe 427b d9bb 460a 8a3d
00000220: 2465 bc3d 8992 913d 82db 2fbd 28ff 38bc
00000230: 75b6 fdbc 5bf0 87bd b092 bcbd 5462 28bc
00000240: f62f 1f3d 2c51 223e b226 4f3e 5aae 083d
00000250: d8af b6bc 9136 453d 2fae e93c 247b 9dbd
00000260: e335 1d3d 1583 d4bd a1ab 7b3c b8c5 7ebb
00000270: 070a e03d 96fd 4abd 10f7 2a3d 79d8 55bd
00000280: 1aa0 4dbd c504 bbbd 45d7 073e 7b62 f3bc
00000290: 97f2 1fbd 958c d33b 59ea d1bb 6098 20be
000002a0: 8f3d c4bd 80a4 fd3b 8e60 213d 50d7 4fbc
000002b0: abb0 31bd acae d3bd 4c76 a6bd 3892 b0bd
000002c0: e80f b93d bb2d ee3c 4bea 1b3e 3a05 5ebc
000002d0: d0b6 9bbb b873 c93d d5a1 d33d 3cbe 34bd
000002e0: bf93 babc 6f83 41bc 6ff4 fe3c b72d 9c3d
000002f0: cd47 90bc 3a55 d7bc 6e0f aebc 7461 8f3b
00000300: a214 bd3c a150 c0bc 6745 6c3b 26ac 8bbd
00000310: df38 3b3e b7e2 82bc d402 1e3d 3621 43bc
00000320: 2ae3 163c 6588 383d 1d83 9f3b 8c11 183d
00000330: 87bc 573c d851 f1bd 6dab 4e3d f666 4dbd
00000340: bf40 c53d 542f 193d 518c d23d 9b07 e1bd
00000350: a50d 293e 8f32 083d 25ed a4bd f928 ad3a
00000360: 3e8d e03d 6c03 353d 3015 f9bc 4a6a 1cbd
00000370: e2ed 2fba 909f 35bd 9a5f 053d 90d6 2f3a
00000380: eb2c a3bd be50 0abd 190c dc3d 9eb9 173c
00000390: c2be ee3d 7560 773c 4238 f5bd 0c90 313d
000003a0: 97b4 4f3d 81c5 88bc 0956 353d 6a94 85bc
000003b0: 0a92 14bd 5f7c 0c3c f4e9 d539 0384 253d
000003c0: bf76 bb3b f121 513d f868 d1ba 3614 94bb
000003d0: 08fb 683d 234e 623d 0d1c 9bbd 82e5 f73a
000003e0: 2953 a23d da70 bcbd 8f9a 0cbd 4422 373d
000003f0: 5683 9939 edb7 27be caf1 eabc b8ea 213d

bias_ih_l0 f4 [350]
-0.1303477 -0.17490907 0.10629915 0.02115226 -0.074798755 0.07671721 0.111187145 -0.07315048
-0.098102205 0.04727022 0.046134245 -0.08992356 0.12866962 0.026110167 -0.06702782 0.13630785
0.15779063 0.18265086 -0.17838605 -0.22459656 -0.1282675 0.04642783 0.17720395 -0.14781483
0.17858621 -0.0346397 -0.09229325 -0.5133771 0.27476993 -0.07142745 -0.051737137 0.21103512
-0.16581699 0.0010200385 -0.057611153 -0.10214476 0.0420772 -0.10457725 -0.10616535 -0.053959172
-0.23560302 0.03369901 -0.310916 0.105466105 -0.07456606 -0.07011007 -0.08712994 -0.18544419
0.043799445 -0.16276732 0.089783676 -0.2308104 -0.010324997 0.16175294 0.11624752 0.15158924
-0.14500868 -0.00748774 0.106860384 -0.1568096 0.046864565 0.06902909 -0.0909484 0.033920683
0.025950646 -0.050475284 0.084672205 -0.020267028 0.0051231603 0.1870247 0.15857899 -0.12747942
0.079604186 0.06456359 -0.06705832 0.06425501 0.011460517 -0.08827739 0.037369486 0.01223426
-0.25839132 -0.059577227 0.13661705 0.010906091 0.1636219 0.13382994 -0.21604744 0.008212511
0.3483824 -0.054702953 0.105797164 -0.15671243 0.089658014 0.04522434 0.0072050765 0.18416998
-0.21496661 -0.06336289 -0.051564075 -0.12675858 -0.25871974 -0.10507338 -0.025204185 -0.0006397584
-0.007954664 -0.16280566 0.0043264097 0.0056984974 0.029610574 0.18741532 -0.12171596 -0.0695483
-0.22149403 -0.10971879 -0.032621704 -0.3385124 -0.1608622 -0.0015612285 0.13482824 0.01482196
-0.03255794 -0.14958745 -0.38146535 0.012509807 0.043833837 0.18539625 0.35851595 -0.2781745
0.112856954 -0.07623212 0.07060055 -0.13479297 -0.07935016 0.16080448 0.17686515 0.103546895
0.03865782 0.0788501 -0.012373744 -0.09726819 0.17241079 -0.1346644 -0.19551797 0.14238569
0.027865509 -0.09243615 -0.08899607 0.13475701 0.085073605 0.03869479 0.15640603 -0.21204771
0.07967019 -0.038980886 -0.18025649 0.07107013 -0.046513703 0.075579755 -0.049443714 -0.0815383
-0.049650885 0.15983757 0.43786383 0.076271474 -0.064255364 -0.024448976 0.15404697 0.10404467
-0.17636795 -0.044321965 0.11242115 0.021085417 0.17628583 -0.14229919 -0.0026715465 -0.104784414
-0.055641208 0.16289242 0.16421291 -0.23196931 0.14866392 0.20371768 -0.037693404 0.0078778835
0.060925502 0.30640513 0.14732377 0.26725566 0.065931424 -0.15904549 0.15536971 0.0320865
0.10366851 -0.03757317 0.16254015 0.2702023 -0.06446361 -0.010236637 -0.056414016 -0.029725797
0.2095383 -0.039911263 0.05677044 0.17491452 -0.053488612 -0.028358446 0.02453199 -0.077155575
0.11547242 0.04226574 -0.14626539 0.14031422 -0.09058886 0.046236653 -0.11610298 0.0022622987
0.021903472 0.10582152 0.1629367 0.052843895 0.10051109 0.02007012 0.34497818 -0.12888686
0.031185266 0.039342567 -0.049743604 0.1394815 0.2750144 -0.005775489 -0.17081617 -0.03378721
0.044776574 0.13039182 -0.095092006 -0.2926896 -0.11477823 0.11892549 0.1514446 0.035583507
-0.044537265 -0.13597405 -0.069930546 0.17381608 -0.04782036 0.08524162 0.2144315 0.3604371
-0.031140622 0.13349575 0.11541407 -0.14293088 -0.0973596 -0.12001854 -0.017383458 0.2835966
00000000: de79 05be 5d1b 33be 5eb3 d93d 8147 ad3c
00000010: 1730 99bd ea1d 9d3d 16b6 e33d ebcf 95bd
00000020: cfe9 c8bd 6b9e 413d 43f7 3c3d d829 b8bd
00000030: f8c1 033e fde4 d53c e245 89bd 4994 0b3e
00000040: de93 213e d408 3b3e d5aa 36be a4fc 65be
00000050: 8e58 03be 1c2b 3e3d f474 353e c55c 17be
00000060: 4edf 363e 5ce2 0dbd 3e04 bdbd ae6c 03bf
00000070: a5ae 8c3e 8e48 92bd 52ea 53bd 9719 583e
00000080: eecb 29be d0b2 853a acf9 6bbd 4631 d1bd
00000090: 2459 2c3d 992c d6bd 386d d9bd 4b04 5dbd
000000a0: eb41 71be f907 0a3d 6230 9fbe 9dfe d73d
000000b0: 17b6 98bd de95 8fbd 2f71 b2bd 15e5 3dbe
000000c0: 0c67 333d 7aac 26be 81e0 b73d 9059 6cbe
000000d0: 2d2a 29bc 90a2 253e 2e13 ee3d 363a 1b3e
000000e0: 287d 14be b75b f5bb 9ed9 da3d b292 20be
000000f0: 0ff5 3f3d 205f 8d3d 2843 babd 6af0 0a3d
00000100: 7396 d43c 2cbf 4ebd 9f68 ad3d 0a07 a6bc
00000110: 2fe0 a73b 6783 3f3e 8862 223e f789 02be
00000120: 8507 a33d ea39 843d df55 89bd 2198 833d
00000130: e4c4 3b3c c7ca b4bd bf10 193d 3572 483c
00000140: de4b 84be 4007 74bd 57e5 0b3e 76af 323c
00000150: 808c 273e b70a 093e 8a3b 5dbe c58d 063c
00000160: 2e5f b23e 3410 60bd 2fac d83d 3979 20be
00000170: 9f9e b73d 283d 393d 9018 ec3b 0e97 3c3e
00000180: 3520 5cbe 67c4 81bd da34 53bd 00cd 01be
00000190: ea76 84be b630 d7bd 0279 cebc 76b5 27ba
000001a0: 4754 02bc 87b6 26be 8ec4 8d3b 76ba ba3b
000001b0: e091 f23c cde9 3f3e 3846 f9bd 576f 8ebd
000001c0: 55cf 62be 3fb4 e0bd 569e 05bd 7f51 adbe
000001d0: 10b9 24be 23a2 ccba 6a10 0a3e ced7 723c
000001e0: 795b 05bd 742d 19be 6d4f c3be eff5 4c3c
000001f0: 1c8b 333d 84d8 3d3e 678f b73e e36c 8ebe
00000200: 8c21 e73d 961f 9cbd 0597 903d 2b07 0abe
00000210: 5682 a2bd eea9 243e 231c 353e 6510 d43d
00000220: aa57 1e3d 297c a13d 3ebb 4abc 8b34 c7bd
00000230: 748c 303e 77e5 09be dd35 48be 8ecd 113e
00000240: 3546 e43c 2a4f bdbd 9243 b6bd befd 093e
00000250: 123b ae3d 6e7e 1e3d e728 203e 0923 59be
00000260: 202a a33d 6caa 1fbd 2895 38be 378d 913d
00000270: 2785 3ebd 8fc9 9a3d 7e85 4abd 8dfd a6bd
00000280: ba5e 4bbd 76ac 233e b02f e03e 3834 9c3d
00000290: 5198 83bd 3849 c8bc 7dbe 1d3e 5f15 d53d
000002a0: cd99 34be f38a 35bd 0f3d e63d 53bb ac3c
000002b0: 4684 343e e1b6 11be 1d15 2fbb 3699 d6bd
000002c0: 09e8 63bd 45cd 263e 6e27 283e 5d89 6dbe
000002d0: 5b3b 183e 5e9b 503e 6664 1abd 3d12 013c
000002e0: 058d 793d 22e1 9c3e 0bdc 163e bcd5 883e
000002f0: 0e07 873d d2dc 22be 3d19 1f3e 226d 033d
00000300: 2850 d43d 53e6 19bd ed70 263e f557 8a3e
00000310: 7f05 84bd 91b7 27bc 6212 67bd 8483 f3bc
00000320: 3591 563e fe79 23bd 1f88 683d cb1c 333e
00000330: e016 5bbd f94f e8bc 50f7 c83c be03 9ebd
00000340: ce7c ec3d d71e 2d3d 98c6 15be 88ae 0f3e
00000350: a786 b9bd a562 3d3d 66c7 edbd 1343 143b
00000360: e96e b33c f4b8 d83d e1d8 263e d772 583d
00000370: c2d8 cd3d 186a a43c fba0 b03e ebfa 03be
00000380: 3e78 ff3c ac25 213d f3bf 4bbd 3dd4 0e3e
00000390: b0ce 8c3e 5040 bdbb 6fea 2ebe 7564 0abd
000003a0: a467 373d 6f85 053e 99bf c2bd 69db 95be
000003b0: d910 ebbd 358f f33d 4b14 1b3e 03c0 113d
000003c0: b56c 36bd c83c 0bbe bf37 8fbd d8fc 313e
000003d0: 48df 43bd 2993 ae3d ee93 5b3e 368b b83e
000003e0: 9e1a ffbc 1cb3 083e 365e ec3d 795c 12be
000003f0: 7864 c7bd 48cc f5bd c167 8ebc 9333 913e

bias_hh_l0 f4 [350]
-0.05933966 -0.22581178 0.1024182 -0.001290831 -0.09312492 0.012898049 0.07938319 -0.061895497
-0.04447636 0.079031944 0.00935779 -0.07250436 0.11955046 0.011779063 -0.0064651817 0.081953384
0.15495226 0.22678842 -0.17295127 -0.23308107 -0.1369869 0.011189156 0.15950316 -0.15576002
0.20679216 0.04925361 -0.09419827 -0.5343136 0.26452455 -0.09783254 0.02528951 0.17591377
-0.18339957 0.032046188 -0.004623542 -0.18726332 0.055127103 -0.10822227 -0.10587506 -0.06974188
-0.2750578 0.006945655 -0.27848575 0.14311278 -0.0032422773 -0.07541306 -0.04851913 -0.16683389
0.04597345 -0.14710248 0.044901673 -0.20405352 -0.061600503 0.23877805 0.1234833 0.163567
-0.14273778 -0.08905715 0.0427832 -0.12868448 0.013622452 0.06445093 -0.12710056 0.030555652
0.017078904 0.03218303 0.10300733 0.007897991 0.03381835 0.1704647 0.07876831 -0.13336349
0.09857794 0.030492326 -0.055740234 0.027320495 -0.047401037 -0.06727056 0.0777167 0.016079929
-0.32315394 -0.026350036 0.13079214 0.04812058 0.082267515 0.12516548 -0.25837985 0.01915729
0.34127867 -0.06401296 0.1402123 -0.07686399 0.04259921 0.084260136 -0.069628984 0.26825863
-0.19073732 0.0040814015 -0.0069770087 -0.11865275 -0.2082423 -0.073412515 -0.03671417 0.008385372
-0.029931482 -0.14405124 0.027386393 -0.051053163 0.01681216 0.14638151 -0.1878891 -0.08709862
-0.17815088 -0.05834086 -0.0062779062 -0.30729842 -0.17995918 -0.08587535 0.11846918 0.013813385
0.023531724 -0.18037145 -0.38708994 0.033102196 -0.031345624 0.14472385 0.27715254 -0.32045838
0.09543741 -0.13913901 0.08357057 -0.13208625 -0.07209095 0.11794719 0.17476562 0.013037783
0.022425652 0.119415835 -0.091926545 -0.07851993 0.22473684 -0.10679091 -0.11809897 0.165471
0.0340048 -0.09645171 -0.171601 0.15301085 0.0068663973 0.11151936 0.12033045 -0.2574816
0.14895122 -0.09467311 -0.17153582 0.04625277 0.026999587 0.066268325 0.01600051 -0.05289731
-0.045649335 0.21354365 0.34370053 0.07224457 0.017746141 0.04447906 0.16209953 0.015874509
-0.09505807 -0.053098887 0.087254144 0.0007144241 0.20416223 -0.17081223 0.009430251 -0.07876205
-0.068206064 0.17526059 0.14454404 -0.20325442 0.17999785 0.1508159 -0.09904056 0.06532481
0.07530714 0.31083143 0.046487153 0.2638733 0.0707767 -0.21887209 0.20610432 0.046551906
0.17422098 -0.076723084 0.15734528 0.2802013 -0.11109763 -0.0057102763 0.03033318 -0.09242305
0.19597316 -0.040050518 0.103263766 0.1752805 -0.05499048 0.00025389474 0.023490733 -0.12968539
0.20512651 0.06321547 -0.124713525 0.14430745 -0.10617578 0.033470523 -0.102732256 -0.026085785
0.04927083 0.1378835 0.15898678 -0.004186189 0.11024153 -0.04624348 0.2516825 -0.18777686
0.017283518 0.099643975 -0.07267576 0.101839386 0.30084783 -0.10850822 -0.16505225 -0.014664231
0.029023102 0.03822886 -0.11964273 -0.22433388 -0.104383856 0.07820636 0.15957355 0.05448728
-0.05602096 -0.15439008 -0.06270467 0.19375181 -0.019167233 0.034208003 0.12080878 0.3342209
-0.05975992 0.13617912 0.14382982 -0.10359438 -0.0696243 -0.14924519 -0.009156833 0.20667027
00000000: 250e 73bd 343b 67be a2c0 d13d 1a31 a9ba
00000010: 47b8 bebd 5752 533c a793 a23d 2286 7dbd
00000020: d82c 36bd 80db a13d 6b51 193c 2a7d 94bd
00000030: dfd6 f43d f9fc 403c e0d9 d3bb 2dd7 a73d
00000040: ceab 1e3e 393b 683e 231a 31be ceac 6ebe
00000050: 4b46 0cbe b952 373c cc54 233e 8e7f 1fbe
00000060: 53c1 533e 27be 493d 06eb c0bd c7c8 08bf
00000070: c36f 873e 6d5c c8bd f22b cf3c bd22 343e
00000080: 19cd 3bbe dd42 033d 1581 97bb f5c1 3fbe
00000090: f5cc 613d a3a3 ddbd 06d5 d8bd d5d4 8ebd
000000a0: 60d4 8cbe 6198 e33b af95 8ebe 288c 123e
000000b0: 637c 54bb 2a72 9abd ffbb 46bd 81d6 2abe
000000c0: a84e 3c3d 08a2 16be d1ea 373d 68f3 50be
000000d0: cf50 7cbd 3c82 743e d0e4 fc3d 1c7e 273e
000000e0: da29 12be 9863 b6bd 703d 2f3d ddc5 03be
000000f0: b430 5f3c d9fe 833d a626 02be d94f fa3c
00000100: 0fe9 8b3c 5ad2 033d 82f5 d23d 9366 013c
00000110: 1c85 0a3d 4c8e 2e3e 4851 a13d 7090 08be
00000120: 3be3 c93d 0bcb f93c df4f 64bd 3bcf df3c
00000130: 9727 42bd 26c5 89bd ef29 9f3d 0eba 833c
00000140: 6f74 a5be 08dc d7bc 60ee 053e 161a 453d
00000150: df7b a83d 612b 003e 5d4a 84be c0ef 9c3c
00000160: 14bc ae3e 3a19 83bd d093 0f3e de6a 9dbd
00000170: 827c 2e3d 9490 ac3d a499 8ebd 3259 893e
00000180: a550 43be 47bd 853b 649f e4bb 3700 f3bd
00000190: 783d 55be 4d59 96bd 9961 16bd cd62 093c
000001a0: de32 f5bc 2b82 13be 6e59 e03c 1f1d 51bd
000001b0: a8b9 893c 09e5 153e 0066 40be c360 b2bd
000001c0: 2f6d 36be d3f6 6ebd e5b6 cdbb 3856 9dbe
000001d0: 3847 38be 6adf afbd f89f f23d 8951 623c
000001e0: 9ac5 c03c 4bb3 38be a730 c6be 2b96 073d
000001f0: 4564 00bd 7d32 143e f0e6 8d3e 1f13 a4be
00000200: b074 c33d 757a 0ebe 0c27 ab3d 9e41 07be
00000210: 6ca4 93bd 4c8e f13d c2f5 323e 6d9c 553c
00000220: 00b6 b73c 4a90 f43d fc43 bcbd 0fcf a0bd
00000230: 6a21 663e 31b5 dabd dfdd f1bd 3b71 293e
00000240: 9e48 0b3d 7988 c5bd 2cb8 2fbe e0ae 1c3e
00000250: 84ff e03b 4364 e43d d06f f63d a1d4 83be
00000260: ab86 183e fae3 c1bd 16a7 2fbe 8b73 3d3d
00000270: 3d2e dd3c b0b7 873d 8013 833c daaa 58bd
00000280: ccfa 3abd 30ab 5a3e 84f9 af3e f6f4 933d
00000290: 5b60 913c ad2f 363d 6bfd 253e 420b 823c
000002a0: cead c2bd 387e 59bd 4db2 b23d 3148 3b3a
000002b0: e70f 513e 67e9 2ebe 5781 1a3c ff4d a1bd
000002c0: 9faf 8bbd 8377 333e 5a03 143e ed21 50be
000002d0: 5b51 383e 7c6f 1a3e c7d5 cabd 04c9 853d
000002e0: a13a 9a3d 4c25 9f3e 5069 3e3d 671a 873e
000002f0: 60f3 903d 0120 60be 030d 533e 36ad 3e3d
00000300: fc66 323e fe20 9dbd 1f1f 213e 8b76 8f3e
00000310: 2787 e3bd 451d bbbb 4a7d f83c 4c48 bdbd
00000320: 30ad 483e 030c 24bd f47b d33d bb7c 333e
00000330: b33d 61bd 2d1d 8539 a36f c03c 3fcc 04be
00000340: af0c 523e 1d77 813d ce69 ffbd 55c5 133e
00000350: b072 d9bd 6318 093d 4a65 d2bd dbb1 d5bc
00000360: 36d0 493d 5531 0d3e 6ecd 223e 4c2c 89bb
00000370: 50c6 e13d ce69 3dbd 87dc 803e 9448 40be
00000380: 2a96 8d3c 2412 cc3d 07d7 94bd 2b91 d03d
00000390: ba08 9a3e 8f39 debd 7503 29be 3e42 70bc
000003a0: dbc1 ed3c dd95 1c3d 3f07 f5bd c8b7 65be
000003b0: 34c7 d5bd a82a a03d 4067 233e 0e2e 5f3d
000003c0: 3c76 65bd 6f18 1ebe 4e6b 80bd e066 463e
000003d0: 9a04 9dbc b11d 0c3d 986a f73d 001f ab3e
000003e0: d1c6 74bd 8a72 0b3e 2048 133e 4a29 d4bd
000003f0: 2f97 8ebd bbd3 18be 8b06 16bc 5fa1 533e

weight f4 [150, 350]
-0.019459965 0.019944187 -0.09103728 0.079139866 0.0122040175 0.036196437 -0.017873548 0.014721744
0.068831205 0.0670765 0.01336865 0.1573735 0.05777911 -0.014900605 -0.18023835 0.024792816
0.03370404 0.18621145 0.022621002 -0.011457651 0.031536814 0.03662838 0.06566775 -0.004145332
-0.018392267 0.040139493 0.0004165094 -0.019710036 0.05729522 -0.030364424 -0.07268255 0.04056641
-0.03400557 0.117589 -0.058942985 -0.00090484857 -0.013678966 -0.33448234 0.05890493 -0.004738405
-0.04289003 -0.022941234 0.09325383 0.03497029 -0.31614697 0.022574151 -0.038466763 -0.014718617
-0.0015784814 -0.064204104 -0.011750709 0.022128975 -0.03328374 -0.021457095 0.040332183 -0.10394139
-0.044714835 -0.025583507 -0.033387877 0.0014518555 -0.077176414 -0.049686763 -0.02059362 0.06372295
0.056533016 0.015971 -0.04227592 -0.0007263628 0.07143194 0.18161073 -0.008478967 -0.05376475
0.044655804 -0.04796989 0.035581816 0.004480289 -0.04464765 -0.009870923 -0.023282627 -0.029578723
-0.11164024 -0.031226449 -0.03418452 0.026991228 0.020813147 -0.07044816 -0.013586802 0.029295633
0.016866192 0.016441977 -0.043400858 -0.049474653 -0.15568209 0.025411272 0.08202736 0.061609622
0.0022020359 0.029092256 -0.23057643 0.08964806 -0.044694856 -0.055815376 0.036098756 0.07174003
-0.04595776 0.049877476 0.3098173 0.0067999996 0.03779511 -0.026517699 -0.059711855 -0.21605942
0.01475443 0.032688316 0.11638128 -0.045943473 -0.06544805 -0.007223491 0.080575556 -0.01303797
0.014134679 0.058959488 -0.021805272 -0.004808597 0.005123698 -0.033860754 0.06200332 -0.07098335
0.04591209 -0.020058746 -0.053396802 -0.020847386 0.017857658 -0.03913528 -0.017375376 0.014007935
0.05965817 0.061505873 0.04176615 0.025384232 0.036352992 -0.07520315 -0.1064785 0.07341469
0.073045224 -0.0028835752 0.0019289403 0.03950119 0.020483248 -0.04612284 0.0491903 -0.0540658
0.06307495 -0.060003188 0.04616126 0.038548797 -0.02478286 0.017193 -0.03547085 -0.02823152
-0.037433125 -0.012954641 0.06152576 0.00908078 -0.052033827 0.035878256 0.076106 -0.33701053
-0.049146295 0.020888187 0.01700036 -0.25600302 -0.011546199 -0.064321846 -0.021183942 -0.021211494
-0.011255652 0.043478884 0.035328463 -0.039855797 0.0019541709 -0.0066160434 0.15696745 0.1455124
0.023903277 -0.01613696 0.037308194 -0.034725636 -0.033343505 -0.12670952 0.06942109 -0.07880511
0.058311798 -0.021098066 0.08324885 -0.034942478 0.028248757 0.00090526784 -0.120521635 -0.0036231724
0.0711669 0.07390132 0.027354388 0.08698824 -0.0073577277 0.0013314522 -0.04039725 0.022932269
0.08632675 0.01376442 0.07904476 0.022904761 0.0073495866 -0.052131258 0.0056957398 -0.025748728
-0.00869551 -0.018789615 0.037239734 -0.32657006 0.047789898 -0.014598325 0.05429355 0.024025321
-0.09861039 -0.021936636 0.26947024 -0.015602961 0.0619787 0.020349164 -0.017494537 0.033064384
0.19788471 -0.01908232 0.043664206 -0.058328424 -0.035739984 0.051781673 -0.061300147 0.086544536
-0.20919609 -0.031021927 -0.0393883 0.063073836 0.15919504 0.015190849 0.012995289 0.07521248
0.026073832 0.008534036 0.10126292 -0.17540264 0.025179164 0.0027935856 -0.073287465 0.004741317
00000000: 816a 9fbc fe61 a33c c171 babd 1514 a23d
00000010: 5cf3 473c b742 143d 8c6b 92bc 7833 713c
00000020: 60f7 8c3d 675f 893d 2f08 5b3c 8526 213e
00000030: caa9 6c3d ab21 74bc 6790 38be 4e1a cb3c
00000040: 3f0d 0a3d 37ae 3e3e ae4f b93c dfb8 3bbc
00000050: bf2c 013d a407 163d d07c 863d 91d5 87bb
00000060: 61ab 96bc 4f69 243d f25e da39 f176 a1bc
00000070: 65ae 6a3d d0be f8bc 97da 94bd f728 263d
00000080: 6d49 0bbd 80d2 f03d 336e 71bd 5c33 6dba
00000090: be1d 60bc 4541 abbe 4c46 713d 9f44 9bbb
000000a0: 75ad 2fbd 41ef bbbc ddfb be3d 023d 0f3d
000000b0: 04de a1be 6ded b83c 538f 1dbd 5b26 71bc
000000c0: 0ce5 ceba 717d 83bd 0c86 40bc d347 b53c
000000d0: 8854 08bd cac6 afbc 5c33 253d 39df d4bd
000000e0: e726 37bd 8194 d1bc bac1 08bd 304c be3a
000000f0: ab0e 9ebd 5984 4bbd f4b3 a8bc 2e81 823d
00000100: 2a8f 673d 9dd5 823c 8429 2dbd 6269 3eba
00000110: e94a 923d 2af8 393e 5deb 0abc 6d38 5cbd
00000120: 01e9 363d 137c 44bd 3dbe 113d 63cf 923b
00000130: 74e0 36bd a7b9 21bc 35bb bebc 144f f2bc
00000140: a3a3 e4bd 9cce ffbc 1105 0cbd b51c dd3c
00000150: 5580 aa3c 2047 90bd 2e9b 5ebc 65fd ef3c
00000160: f82a 8a3c 53b1 863c 19c5 31bd efa5 4abd
00000170: 206b 1fbe 4d2b d03c f6fd a73d 5f5a 7c3d
00000180: 0850 103b e252 ee3c 3a1c 6cbe 6799 b73d
00000190: f411 37bd aa9e 64bd 4adc 133d 70ec 923d
000001a0: 343e 3cbd 534c 4c3d 60a0 9e3e 88d2 de3b
000001b0: 0ccf 1a3d a53b d9bc 6b94 74bd ae3e 5dbe
000001c0: 91bc 713c 2fe4 053d 4f59 ee3d 392f 3cbd
000001d0: a109 86bd 09b3 ecbb cc04 a53d 369d 55bc
000001e0: 2495 673c 817f 713d f8a0 b2bc 6f91 9dbb
000001f0: b2e4 a73b 93b1 0abd 31f7 7d3d b85f 91bd
00000200: 510e 3c3d 3d52 a4bc 9bb6 5abd 23c8 aabc
00000210: 394a 923c 514c 20bd ce56 8ebc 8a81 653c
00000220: 205c 743d 95ed 7b3d fc12 2b3d 98f2 cf3c
00000230: e0e6 143d 1c04 9abd 6611 dabd 715a 963d
00000240: bc98 953d 5dfa 3cbb 7fd4 fc3a 00cc 213d
00000250: 7ccc a73c 4eeb 3cbd c57b 493d 1a74 5dbd
00000260: 702d 813d e7c5 75bd 9713 3d3d 58e5 1d3d
00000270: 6d05 cbbc 56d8 8c3c e249 11bd ca45 e7bc
00000280: 7a53 19bd b43f 54bc 6f02 7c3d 8dc7 143c
00000290: 6c21 55bd 14f5 123d 76dd 9b3d a58c acbe
000002a0: a04d 49bd b41d ab3c 5744 8b3c d412 83be
000002b0: 452c 3dbc 2cbb 83bd f289 adbc bac3 adbc
000002c0: a069 38bc ea16 323d 94b4 103d d53f 23bd
000002d0: 8c11 003b 65cb d8bb 13bc 203e 3401 153e
000002e0: ced0 c33c a831 84bc 7ad0 183d 783c 0ebd
000002f0: 3393 08bd 24c0 01be a52c 8e3d 9364 a1bd
00000300: 5ad8 6e3d dad5 acbc 607e aa3d d81f 0fbd
00000310: f069 e73c 7f4f 6d3a 0cd4 f6bd bf72 6dbb
00000320: f4bf 913d 9359 973d 4f16 e03c e426 b23d
00000330: 1819 f1bb 1f84 ae3a 9677 25bd 74dc bb3c
00000340: 14cc b03d 2984 613c 38e2 a13d c4a2 bb3c
00000350: cdd4 f03b 9687 55bd 54a3 ba3b ffee d2bc
00000360: 9d77 0ebc aeec 99bc b188 183d 3134 a7be
00000370: 57bf 433d d02d 6fbc ea62 5e3d c0d0 c43c
00000380: 3ff4 c9bd 76b4 b3bc 01f8 893e 90a3 7fbc
00000390: 61dd 7d3d 4ab3 a63c b450 8fbc 856e 073d
000003a0: 4aa2 4a3e 8752 9cbc 3dd9 323d c9e9 6ebd
000003b0: 1764 12bd 0519 543d dd15 7bbd 433e b13d
000003c0: 8037 56be b221 febc a055 21bd db2c 813d
000003d0: 0604 233e 0ae3 783c 31ea 543c 0009 9a3d
000003e0: ca98 d53c 57d2 0b3c ef62 cf3d c09c 33be
000003f0: 8944 ce3c 9714 373b bd17 96bd 0d5d 9b3b

bias f4 [150]
-0.051175065 -0.039367124 0.008023094 0.07524448 0.042299803 0.05259917 -0.27327392 0.022526065
0.04709504 -7.106982e-05 0.06301721 -0.010343373 -0.0043232944 0.046463527 -0.061701246 0.08083532
-0.0042940993 -0.002416274 0.011319186 0.0024880357 0.033443548 0.022697434 0.029457083 0.043793917
-0.0056695496 0.05595642 0.028727222 0.08380473 0.040578056 0.06242188 0.003161417 -0.067697495
0.021697698 0.0731652 -0.031349227 -0.007501748 0.08598249 0.04348946 0.11131516 -0.08945032
0.10425887 0.051582467 -0.061518744 0.1030634 0.051388744 0.026365886 0.017139036 -0.019683434
0.05256974 0.04303461 0.052861236 -0.2906465 -0.035627726 -0.049679253 0.10814611 0.060526785
-0.015701832 0.028003579 0.014173589 0.024427226 0.05877903 0.03125691 0.00926979 -0.012426165
0.0011844871 0.06651566 0.042413667 -0.0032845149 0.038458757 -0.0076793395 0.016032698 0.07359586
0.06540685 -0.027942762 0.0027818421 0.054254655 0.008887576 -0.3233212 0.039007924 0.029481025
-0.02085243 0.045004714 0.044470966 -0.07377424 -0.026265888 0.114516534 0.07092154 -0.0034299719
-0.12435559 0.08139827 -0.033269558 0.08051556 -0.03109601 -0.056562927 0.036079403 -0.028263353
-0.007594255 -0.1329642 0.011186227 0.020824483 0.043949053 -0.07522025 0.03138713 0.025219835
-0.16728623 0.009652646 0.0052996962 -0.2727581 0.009314376 -0.007953047 0.08127001 0.054093745
-0.1190617 0.071562365 0.00040109042 -0.03900419 0.104770586 -0.04538866 0.075653456 -0.113572896
-0.10854182 -0.06956162 0.028270146 0.007685246 -0.17056255 -0.012060152 -0.06955555 0.04139856
0.013190249 -0.01958741 -0.0420328 -0.028520975 0.038106557 -0.056592263 0.0026325001 -0.04712346
0.04681372 0.11300149 -0.072231025 0.0104807075 0.013085206 0.021262184 0.02826553 -0.0059582363
0.04219095 -0.0053343843 0.004295797 0.05326403 0.08386079 0.0013753588
00000000: f29c 51bd 6c3f 21bd 4c73 033c c719 9a3d
00000010: 8f42 2d3d 3a72 573d 8fea 8bbe 9588 b83c
00000020: bbe6 403d 520b 95b8 2b0f 813d 4077 29bc
00000030: 6caa 8dbb 8a50 3e3d 72ba 7cbd fd8c a53d
00000040: 84b5 8cbb 5a5a 1ebb 1b74 393c 500e 233b
00000050: 1afc 083d f8ef b93c fb4f f13c 4061 333d
00000060: a1c7 b9bb 8f32 653d 5a55 eb3c d0a1 ab3d
00000070: 2d35 263d 16ae 7f3d c72f 4f3b fca4 8abd
00000080: 5fbf b13c a3d7 953d 0c68 00bd 39d1 f5bb
00000090: 9617 b03d 0122 323d 34f9 e33d bb31 b7bd
000000a0: ad85 d53d 2348 533d 14fb 7bbd e712 d33d
000000b0: 017d 523d 45fd d73c 2a67 8c3c 273f a1bc
000000c0: 5e53 573d 0f45 303d 0685 583d 9ecf 94be
000000d0: 61ee 11bd 797c 4bbd b57b dd3d efea 773d
000000e0: 21a1 80bc c367 e53c 5738 683c 9b1b c83c
000000f0: 48c2 703d 3f07 003d 51e0 173c 1d97 4bbc
00000100: cb40 9b3a 5d39 883d f4b9 2d3d 0441 57bb
00000110: ee86 1d3d f8a2 fbbb 0157 833c 6db9 963d
00000120: 07f4 853d 38e8 e4bc 914f 363b 213a 5e3d
00000130: 329d 113c 5b8a a5be c6c6 1f3d 3182 f13c
00000140: b7d2 aabc dd56 383d 3027 363d f316 97bd
00000150: 8f2b d7bc a587 ea3d 503f 913d 61c9 60bb
00000160: 25ae febd 23b4 a63d a945 08bd 58e5 a43d
00000170: 0fbd febc 87ae 67bd ffc7 133d 8c88 e7bc
00000180: 3ad9 f8bb c427 08be 7046 373c 1b98 aa3c
00000190: ec03 343d 130d 9abd cb8f 003d d499 ce3c
000001a0: 154d 2bbe 2226 1e3c 13a9 ad3b f3a6 8bbe
000001b0: 539b 183c 7f4d 02bc e470 a63d 6791 5d3d
000001c0: 9fd6 f3bd 4a8f 923d 7249 d239 dcc2 1fbd
000001d0: f691 d63d 76e9 39bd 33f0 9a3d e898 e8bd
000001e0: 2c4b debd 5376 8ebd cb96 e73c 84d4 fb3b
000001f0: f3a7 2ebe f297 45bc 2473 8ebd 8991 293d
00000200: ea1b 583c c775 a0bc 962a 2cbd d2a4 e9bc
00000210: 9f15 1c3d 4acd 67bd 0686 2c3b 8704 41bd
00000220: bebf 3f3d 536d e73d dced 93bd 46b7 2b3c
00000230: 5563 563c 082e ae3c 1d8d e73c 4f3d c3bb
00000240: 6bd0 2c3d 0fcc aebb c2c3 8c3b 622b 5a3d
00000250: 35bf ab3d 6245 b43a

weight f4 [2, 150]
-0.014902865 -0.074296966 -0.005048887 0.06306375 -0.052134566 0.07288272 0.032006923 0.06295732
-0.05026532 0.06365728 0.10956613 0.09813211 0.086203575 -0.09185285 0.31144142 0.10104998
0.0854506 0.09656408 -0.07069944 0.034502283 0.077609174 0.10503846 -0.07502013 0.09435957
-0.11768968 -0.044236355 0.071599625 0.08651517 -0.12649275 -0.0722615 -0.0439369 -0.0026941292
-0.01889315 0.024733884 -0.09179789 0.06988143 -0.115797356 -0.038619835 0.103582114 0.41623607
-0.11310192 -0.1252569 0.27482155 0.060002767 0.048809446 0.0162397 0.043415986 -0.053936888
-0.13067627 0.07893864 0.08007081 0.005400048 0.16512987 -0.3472159 -0.09942328 -0.083688095
-0.0691007 -0.0869747 -0.045891922 0.06394945 -0.088056244 -0.054746263 -0.06815734 -0.009686915
0.05205099 0.11003283 0.008592458 0.08478788 0.09392236 -0.12695582 -0.106003664 0.03828904
-0.05671608 -0.03942659 -0.012376584 0.042303044 -0.13065654 -0.018795637 -0.041637838 0.19947523
0.04094414 0.05781185 -0.07466759 -0.0062509878 -0.04391097 0.10236247 0.083864644 -0.075119905
0.0024824615 0.06414224 -0.054520775 0.040607475 -0.07036559 -0.041638546 0.067830935 -0.03844426
-0.08054074 -0.0020595433 0.06902914 -0.06293707 -0.12708984 0.41435996 0.07873824 0.07065211
-0.00037598214 -0.088546135 0.098628424 -0.0014930042 0.09280946 0.10066461 0.076794244 0.23047583
0.2938691 -0.12768486 -0.07571966 -0.011993028 0.06901772 -0.09183444 0.022510687 0.004589486
0.42406154 -0.025110897 0.094750695 -0.11633628 -0.0015920138 0.04786351 -0.0015027405 0.057359666
0.07540772 0.099619664 -0.03478887 -0.050568365 -0.13818336 -0.0072428943 0.055133525 -0.07750311
0.106424354 0.10823692 -0.0038102411 -0.12120591 0.10048164 0.10306956 0.018274713 0.037952658
-0.042538606 0.1059056 -0.05644442 0.053062014 -0.085496545 -0.06395978 -0.04004812 -0.11330401
0.14419319 0.09441941 -0.0640843 0.09573216 0.046588566 0.028716782 -0.030965185 0.12977901
-0.10248459 -0.052062392 -0.038586427 -0.1415947 -0.050512936 0.11320599 -0.07623046 0.0041115438
-0.08945559 0.06665294 -0.017949298 0.014088655 -0.052404404 0.04015627 0.09189948 -0.004193302
0.0396437 0.14903912 0.14227524 -0.0070143715 0.0128139015 -0.008776751 -0.037894655 0.015051659
-0.04363338 -0.009115351 0.18740778 -0.09827976 0.10219628 0.025284953 0.15168744 0.046111576
0.079473294 0.11462306 0.15733117 0.091251604 0.11085791 -0.081593886 0.101324834 -0.0941504
-0.073843285 0.005228144 0.14012353 0.27794442 0.15745248 -0.01507498 0.06848807 0.06686358
-0.03052465 0.13128777 -0.102443695 -0.078843586 -0.12804466 0.013645381 0.07815495 -0.065604195
0.02300753 -0.012238609 -0.054249655 0.015041437 0.16989636 0.09781235 0.019269569 -0.07719477
0.046624146 0.11079093 0.1310429 0.009502743 0.012625554 -0.097610526 0.032485742 0.1108272
-0.08775746 -0.017857218 -0.08059681 0.10772615 -0.053909753 0.06658659 0.0035834026 0.016853921
0.045404863 0.06647451 -0.11504635 -0.08340939 -0.055037916 -0.07199739 -0.002423133 -0.017960757
-0.0108460905 -0.06974448 0.04264099 -0.09153715 0.061366387 -0.028303092 -0.0030587385 -0.11899667
00000000: 252b 74bc 0229 98bd 2271 a5bb 9127 813d
00000010: 0e8b 55bd 8943 953d b119 033d c4ef 803d
00000020: 02e3 4dbd bf5e 823d 3564 e03d 7df9 c83d
00000030: 808b b03d 591d bcbd 4075 9f3e 4bf3 ce3d
00000040: b900 af3d 63c3 c53d deca 90bd 4452 0d3d
00000050: 8ff1 9e3d 671e d73d 27a4 99bd 973f c13d
00000060: 4907 f1bd 2e31 35bd d3a2 923d de2e b13d
00000070: 5187 01be d6fd 93bd 2ef7 33bd fd8f 30bb
00000080: cfc5 9abc b79e ca3c 8800 bcbd ff1d 8f3d
00000090: 2a27 edbd d52f 1ebd dc22 d43d e51c d53e
000000a0: fba1 e7bd 5843 00be 69b5 8c3e 76c5 753d
000000b0: 6aec 473d 1f09 853c f6d4 313d edec 5cbd
000000c0: 00d0 05be 95aa a13d 2afc a33d e3f2 b03b
000000d0: ce17 293e 48c6 b1be 6f9e cbbd aa64 abbd
000000e0: ab84 8dbd cb1f b2bd 2bf9 3bbd eef7 823d
000000f0: d556 b4bd 9e3d 60bd 1396 8bbd deb5 1ebc
00000100: 6b33 553d e458 e13d 62c7 0c3c 45a5 ad3d
00000110: 5e5a c03d b500 02be 7318 d9bd f8d4 1c3d
00000120: 1f4f 68bd c77d 21bd 28c7 4abc f545 2d3d
00000130: d4ca 05be 4ff9 99bc 708c 2abd 3c43 4c3e
00000140: 0bb5 273d 1ecc 6c3d 52eb 98bd 16d5 ccbb
00000150: fddb 33bd 6aa3 d13d 3ac1 ab3d 77d8 99bd
00000160: cbb0 223b 025d 833d 2d51 5fbd 0654 263d
00000170: d61b 90bd 2e8d 2abd f2ea 8a3d ba77 1dbd
00000180: 8bf2 a4bd 67f9 06bb 265f 8d3d 27e5 80bd
00000190: d723 02be fd26 d43e 8441 a13d 0eb2 903d
000001a0: 781f c5b9 ad57 b5bd b3fd c93d e8b0 c3ba
000001b0: e312 be3d 3f29 ce3d 4d46 9d3d db01 6c3e
000001c0: 0376 963e d2bf 02be e912 9bbd 687e 44bc
000001d0: 2a59 8d3d b213 bcbd 5568 b83c 6663 963b
000001e0: 981e d93e 5eb5 cdbc a70c c23d b741 eebd
000001f0: 1eab d0ba 870c 443d 9bf7 c4ba f8f1 6a3d
00000200: 5d6f 9a3d 6505 cc3d c67e 0ebd c620 4fbd
00000210: f07f 0dbe cd55 edbb b1d3 613d f3b9 9ebd
00000220: 03f5 d93d 51ab dd3d 3db5 79bb ce3a f8bd
00000230: 51c9 cd3d 2216 d33d dab4 953c 3f74 1b3d
00000240: f63c 2ebd 09e5 d83d 4432 67bd 8e57 593d
00000250: d018 afbd 58fd 82bd 7f09 24bd ef0b e8bd
00000260: 61a7 133e f75e c13d a13e 83bd 390f c43d
00000270: a7d3 3e3d 753f eb3c b3aa fdbc cae4 043e
00000280: 71e3 d1bd 603f 55bd cd0c 1ebd 33fe 10be
00000290: a7e6 4ebd 8bd8 e73d b71e 9cbd 21ba 863b
000002a0: 7e34 b7bd 5681 883d 680a 93bc 1ad4 663c
000002b0: 00a6 56bd e77a 243d cb35 bc3d f767 89bb
000002c0: 6f61 223d b69d 183e 9ab0 113e d0d8 e5bb
000002d0: 66f1 513c 5dcc 0fbc 6d37 1bbd 3c9b 763c
000002e0: eab8 32bd 8e58 15bc d3e7 3f3e e646 c9bd
000002f0: 494c d13d 6422 cf3c f453 1b3e 7edf 3c3d
00000300: e5c2 a23d 7fbf ea3d 6c1b 213e 1fe2 ba3d
00000310: 7909 e33d b21a a7bd 6583 cf3d edd1 c0bd
00000320: 263b 97bd da50 ab3b 8b7c 0f3e bb4e 8e3e
00000330: 393b 213e 0dfd 76bc 7943 8c3d c6ef 883d
00000340: d50e fabc 4d70 063e 00ce d1bd bf78 a1bd
00000350: 241e 03be e090 5f3c b40f a03d 7e5b 86bd
00000360: 4a7a bc3c 7284 48bc e334 5ebd 5c70 763c
00000370: 50f9 2d3e d751 c83d 37db 9d3c 4b18 9ebd
00000380: f6f8 3e3d 5be6 e23d 1c30 063e 65b1 1b3c
00000390: 69db 4e3c 07e8 c7bd c50f 053d 5ff9 e23d
000003a0: 2fba b3bd 4d49 92bc f10f a5bd 879f dc3d
000003b0: 79d0 5cbd 8d5e 883d 85d7 6a3b 3c11 8a3c
000003c0: 73fa 393d ca23 883d 6c9d ebbd 8bd2 aabd
000003d0: 706f 61bd 5e73 93bd 6dcd 1ebb 7022 93bc
000003e0: cdb3 31bc 32d6 8ebd 52a8 2e3d d477 bbbd
000003f0: 525b 7b3d e3db e7bc 1e75 48bb 87b4 f3bd

bias f4 [2]
0.060163926 0.12406794
00000000: 736e 763d 5517 fe3d
